Models/model_gnn_2.pth (torch, 38448 bytes, 8 tensors)

conv1.bias f4 [64]
00000000: 4130 7fbe 0000 0000 0000 0000 f56a 6ebe
00000010: 401d 89be eb00 3f3e d558 88be 54c4 853e
00000020: d8be 0a3e 167b 84be 0000 0000 0000 0000
00000030: 4ae8 c73d b6ba 3cbd 6635 73be 0000 0000
00000040: 0000 0000 251c d2be 3e6c 91bd 0000 0000
00000050: 48d1 693e 5f5a 3bbb bc82 debd 3dfc 943e
00000060: 7f00 5abe 0b33 a2be 521e aabd 0000 0000
00000070: 789b adbe 3895 c83d a8e0 a1be 0967 823d
00000080: 8b4b be3d 0000 0000 0000 0000 f685 a23e
00000090: 74f7 c53d 46f6 d33c 2f2d 2e3e 0000 0000
000000a0: 0000 0000 b137 82be a8f3 a73e 7a90 46bd
000000b0: 0000 0000 5b82 59be 0000 0000 1d19 823e
000000c0: 0000 0000 0000 0000 ba8a 8cbe f14a 31bc
000000d0: 230e b23c 0000 0000 aac9 3ebb 0000 0000
000000e0: 1b1a b6be 3ac9 513d ea1b 94be 9caf 893c
000000f0: 3be9 113d 4edb a63e 3bb6 343d a666 903e
-0.24920751 0.0 0.0 -0.23282988 -0.26780128 0.18652694 -0.26630273 0.2612635
0.13549364 -0.25875157 0.0 0.0 0.097611025 -0.0460765 -0.23750839 0.0
0.0 -0.41037098 -0.07100724 0.0 0.2283374 -0.00285878 -0.10864779 0.29098693
-0.21289252 -0.31679568 -0.083065644 0.0 -0.33907676 0.09794086 -0.31616712 0.06367309
0.092917524 0.0 0.0 0.3174283 0.096663386 0.025874268 0.17009424 0.0
0.0 -0.25433114 0.32803082 -0.048477627 0.0 -0.21241133 0.0 0.25409785
0.0 0.0 -0.2744959 -0.01082109 0.021735257 0.0 -0.00291119 0.0
-0.35566792 0.051217295 -0.28927547 0.01680737 0.035622817 0.3258919 0.0441191 0.28203315

conv1.lin.weight f4 [64, 3]
00000000: 3e18 a5bc aac0 6b3e 8e90 d9be 6449 57be
00000010: 7aed 53be a54f 913e b766 90be 30e4 72be
00000020: 0668 6f3d 083d aa3d 4bdf a7bd 2df8 14be
00000030: 96f6 8b3e a622 50be 5243 47be 82c6 b83d
00000040: 4ca5 f4bc d2fd 413e a71e 703d 1e5c e23d
00000050: 6efd b7be cad5 8b3e e604 9b3d 462b c83e
00000060: b7bf 5c3e bcc9 f63d f990 883e a91b 8a3e
00000070: 6d22 1c3e 88c6 f7be ea3e 8abe 741f e8bd
00000080: 854f 043e db28 b53c d73b 38be e0ec 56be
00000090: dde1 493e e09f 47be 263f 44be 9e2a 493d
000000a0: 92ab 813e 66e5 b8bc 1a77 a3bc f72a 5f3e
000000b0: e778 d5be 34c6 2dbe 6c55 06bd 24c9 69bd
000000c0: 41d0 84be 56ab 26be 53d2 49be 093f 123e
000000d0: 22a1 b0be f0c8 70bd a408 61be cdaf 063e
000000e0: 9e05 1a3e df24 e4bd 2322 f5bd e689 c43c
000000f0: fe53 ff3a a96e 843e fb36 173d cebd 80be
00000100: 506e 103e b91d 643e a766 40bd c9cf 593e
00000110: fcfb b3be da39 8dbd b04e a33e a393 3dbd
00000120: 092d 0f3e 0048 023e 6d18 64bd 814a a53d
00000130: 65a6 09be 917a a6be 26fa 77be 3286 7e3e
00000140: 0e14 abbe bdb4 d8bd bf8f 96be 2f61 04be
00000150: ed2f 063e 85c6 dd3d 8c44 26be f3bb 773e
00000160: 8b57 dc3d 2d1a 7f3e 3590 213e 5373 fabc
00000170: cb03 42be 3012 903e 9fc9 56be 6b22 3ebe
00000180: 986b 8e3c fd00 613e e620 763e 70dd cabd
00000190: 7f10 2bbe bde1 79bd 5bf0 a3bd 62d3 debd
000001a0: acec 1e3e e5d3 c83d 862e 1bbd 345d fa3e
000001b0: 20aa 8f3d 7749 2b3e 6a3d a23e 6c50 773d
000001c0: e48f 103e fe33 3fbc f82c 9a3d fbbb f73d
000001d0: 350a d03e 979f 05bd d10e 27bd e41d 8fbe
000001e0: a520 3ebd 3b46 84bd 9f68 703e e8d0 6e3e
000001f0: af0e b6be 9775 4cbe b409 16bd a2a1 0d3e
00000200: a84b d03e e13e a7bd 67f7 263e 5c84 8ebe
00000210: 1ed2 41be c7bd 8ebe 55c8 67bd f32e d83d
00000220: 78d3 5e3d 8d77 98bd a194 553c 483f 82be
00000230: 560b c63c dbb9 d03d a52c 8f3e a063 f63d
00000240: ab91 57be 2783 07be 2ee5 3d3e b6ad 91be
00000250: 90af 40be c1ee 8e3e 2c96 723e cca5 593a
00000260: c285 6cbd 43fe 97be 06aa 7b3c 4980 dc3d
00000270: 71bd 80be c10b 263e 40e9 073d d7d1 22be
00000280: 0bd1 efbd 94aa 4d3e 93ec 2fbc 58aa f23d
00000290: 7f03 bc3c 89b2 e1ba 38a5 76bd 01f5 723e
000002a0: 345c 853e 00b0 19be 1064 aebe 6095 35be
000002b0: 6f07 223e f24b 223c f3c9 3c3e 44fb 083d
000002c0: cfb1 d93c 90da 5fbe 3519 623e 2cff 5fbe
000002d0: 5bbf 9abe a5fd 863e 7e64 8e3d a4e6 633d
000002e0: 4235 1b3e e029 403e e0a2 7dbe 5cd1 603e
000002f0: 5a67 9e3c 27af be3b cfe3 793e c35d 853e
-0.020153161 0.23022714 -0.424931 -0.2102409 -0.20696059 0.28381076 -0.28203365 -0.23719859
0.058448814 0.08312422 -0.08196887 -0.14547797 0.27336568 -0.20325717 -0.19459274 0.09022237
-0.029863976 0.18944481 0.058622982 0.11052726 -0.3593554 0.27311546 0.07569294 0.39095515
0.21557508 0.120501965 0.26673105 0.26974228 0.15247507 -0.48393655 -0.27001125 -0.11334124
0.1292096 0.022114208 -0.17991577 -0.20988798 0.19715066 -0.19494581 -0.19164714 0.04911291
0.2532621 -0.022570323 -0.019954253 0.21793734 -0.41693804 -0.1697014 -0.03279631 -0.05707659
-0.25940135 -0.16276297 -0.19709139 0.14281859 -0.34497935 -0.05878538 -0.21975952 0.13153
0.15041205 -0.11139845 -0.11969402 0.023991536 0.0019479988 0.25865677 0.036917668 -0.2514481
0.14104581 0.22276963 -0.046972897 0.2127067 -0.35153186 -0.068958 0.3189597 -0.046283375
0.13982023 0.12722778 -0.055687357 0.08070851 -0.1344238 -0.32515386 -0.24216518 0.24855879
-0.33413738 -0.10581348 -0.29406545 -0.12927698 0.1310422 0.1082888 -0.16237086 0.2419279
0.10758885 0.24912329 0.15777667 -0.030572569 -0.1894676 0.28138876 -0.2097535 -0.18567817
0.01738529 0.21973033 0.24035987 -0.09905517 -0.16705512 -0.061006296 -0.080048285 -0.10880162
0.1551997 0.09806041 -0.037886165 0.48899233 0.07014871 0.16727243 0.3168748 0.06037943
0.1411739 -0.011670111 0.07528108 0.12096401 0.40632787 -0.0326229 -0.040785614 -0.27952492
-0.04641785 -0.06458708 0.2347741 0.23321879 -0.35558078 -0.19966732 -0.036630347 0.1383119
0.4068272 -0.0816629 0.16305314 -0.27835357 -0.1892781 -0.27879164 -0.056587536 0.1055583
0.05440089 -0.074446775 0.013035924 -0.25438905 0.024175327 0.10191699 0.2796375 0.12030721
-0.21051662 -0.13233624 0.18544456 -0.28452843 -0.18816972 0.2791653 0.23690099 0.0008302599
-0.05774475 -0.29686174 0.015360361 0.10766656 -0.25144532 0.16215421 0.03318143 -0.1590036
-0.11709794 0.20084602 -0.010737556 0.11848897 0.022950886 -0.0017219345 -0.06021616 0.23726274
0.26046908 -0.15008545 -0.34060717 -0.17732763 0.15823148 0.009905802 0.18436413 0.03344275
0.026574044 -0.21860719 0.22079928 -0.21874684 -0.30224118 0.2636539 0.06952761 0.055639878
0.15157035 0.18765974 -0.24769163 0.21954864 0.019336391 0.0058192196 0.24403308 0.26048097

conv2.bias f4 [64]
00000000: fe3f 8b3d 1f02 fd3d 647f 5dbe 35dd 263c
00000010: 0000 0000 2885 5c3d 62ce 153e 0000 0000
00000020: 6050 f73c b3c7 6b3e f9a5 473e 8b95 6bbe
00000030: b1f1 79be ef77 b4bb 90c2 2d3d 0000 0000
00000040: 0000 0000 af58 33bc f354 14bc 0000 0000
00000050: 0000 0000 0000 0000 2195 0ebb 0000 0000
00000060: d246 5abe 0000 0000 4d1e f8bd 3a5c b53d
00000070: 6d49 36bb 692b 9dbb d256 1cbd e4bb 8d3e
00000080: 256a fd3d 61e6 9dbc 4c66 15be 0dc0 0cbc
00000090: 78e3 85be dbdf ccbb 0000 0000 0000 0000
000000a0: 7ebc 29be ef49 c53d f7de 5ebe 16f2 173d
000000b0: b76b 89be 0209 843e 0000 0000 0000 0000
000000c0: 0000 0000 79b1 333e 8c15 a53d 0000 0000
000000d0: 1f04 33bc 6c30 213d ad31 8cbe d96d 813c
000000e0: 563f 8f3d bb4a 313e 5895 f7bc bda8 9dba
000000f0: c280 233e 8a25 25bb 3aee dabd 89f0 3bbd
0.06799315 0.1235392 -0.21630627 0.010184576 0.0 0.053837925 0.1462951 0.0
0.030189693 0.23025398 0.19496907 -0.23006265 -0.24408604 -0.0055074613 0.042421877 0.0
0.0 -0.010946437 -0.009053457 0.0 0.0 0.0 -0.0021756368 0.0
-0.21316078 0.0 -0.121151544 0.088554814 -0.0027814761 -0.0047964347 -0.038168736 0.27682412
0.12373761 -0.019274892 -0.14589804 -0.00859071 -0.26150107 -0.0062522716 0.0 0.0
-0.1657581 0.09633242 -0.21764742 0.037096106 -0.26839992 0.25788122 0.0 0.0
0.0 0.17548169 0.0806075 0.0 -0.0109262755 0.03935282 -0.2738165 0.01579945
0.06994502 0.17313664 -0.03022258 -0.0012028437 0.15967086 -0.0025199377 -0.10689969 -0.04588369

conv2.lin.weight f4 [64, 64]
00000000: 78ec 1b3e 81a6 423d a7bc 2a3d e360 913d
00000010: 4bfb ca3d 1f11 273e f1d1 3bbe 9082 053e
00000020: 99bd c4bd 7e35 15be 32b3 063e bbaa f13d
00000030: d400 193e 5040 4abd 2bda 12be 0c29 17bd
00000040: 4bf6 293e 72a9 17be f544 653e 8aa0 30bd
00000050: 3c9c 8ebd 8575 8b3e 71fe 36be 3dd4 65be
00000060: deac a73d 1de6 753d 5469 343d a79d 57be
00000070: 1a92 dbbc 276f f53d c2e4 993d 626c a7bc
00000080: 79f8 383e 7a75 83bd ffd0 113e efb5 ccbd
00000090: 7f78 563d 8c64 3b3e 3a31 ae3c 3fa8 a2bd
000000a0: 9a38 04bb 9d3b 053e a0c2 333e 56aa bebd
000000b0: 810b 0abe 65b4 62be 15cb e43d 6794 2dbe
000000c0: f06e 42be ea1e f0bd 7ed9 453e 3e30 8abd
000000d0: 5b3a b83e 34ed 09be 474f 923d 70f7 233d
000000e0: f4b1 773d 5a84 783e 8cdf 5a3d 9bb1 a7bc
000000f0: 30be 2e3e 032c 3d3e 13ca 813e 4ff8 9dbd
00000100: c0fa 77be c96c 503e 7592 8fbd f497 a23d
00000110: 61fb 913d 8bf3 903e be0d b6bd e1a8 60bd
00000120: d07c ffbd ea48 41bd 473a 05be 330b 323e
00000130: 056b 66bd 6f3a 07be f795 823d 9209 bebc
00000140: 3b43 42be 1ba5 4ebd f8d2 253e 2161 8cbd
00000150: 347c 353d f59f a03d 2b4a b43d 76e6 4ebd
00000160: 3216 06bc 5213 c2bd 8f28 7abe 4a79 a73c
00000170: 1ad8 2cbe 6fbe f0bd a15b c3bb d166 473e
00000180: b9a3 9e3d 3a6d 3d3d 2bfc 41bd c92d 93bb
00000190: 538b 2f3e 112d 79bd 3f4b 9c3c d29c 223e
000001a0: e468 143e 5a36 4d3e 5856 093e 37a7 ccbd
000001b0: 55ac 3e3e fe0a 913d 6169 debd 51a5 23bd
000001c0: 1f65 91bb 97a9 f6bb 15ec 553d ca7c 1dbe
000001d0: d8b0 253c 17b4 ee3d 8ad9 f93d 075c 0ebe
000001e0: 1dbc b73c a2bc 2c3e dbda 62be f60b 00be
000001f0: 4eaf 953d aaeb f23c 2da9 e53d d6a5 443e
00000200: da99 4b3e 6219 4bbe 4b7c c33d e76a 593e
00000210: 9461 ed3c ac99 a4bb d530 0abe 6691 bf3d
00000220: 4754 63be 4fee 3a3e f40f fe3d 7799 d03d
00000230: 4889 16be fc66 863d ba66 d73c 8c4f aabd
00000240: b217 383e 8cf5 7a3e c9bd 133d 0cab 4fbe
00000250: b0cd e7bd 3609 e63d 5e73 d93e d565 a0bd
00000260: 83f5 12be e289 d13e 42b1 33be 2562 523e
00000270: cc67 373d a729 4cbe b5a4 823d ecca 05be
00000280: 626f 3f3e ec64 333d 1841 10be 81b8 73be
00000290: c420 373e aabe e3bd b23c 5cbe e5dc 8a3d
000002a0: 9412 123e e14d ba3d 0811 5dbd b7d0 5fbc
000002b0: 7aca 3bbd 14af 8b3d 3e4f 44be 5b14 7f3d
000002c0: 2538 49be baac fd3d 0444 4c3e fc49 263e
000002d0: 56ee 3f3e c102 acbd 66b9 c43d fd45 3cbe
000002e0: 8d16 4e3e d09a ebbd 88bc c43d 1135 00be
000002f0: ffa5 cfbe 3097 35be d262 d9be 7657 8fbc
00000300: c956 533e 7007 363e b5c3 a8bd 0e43 bbbd
00000310: 3d15 ccbd 77f3 7a3d e3a4 64bd 3a7e 40be
00000320: d122 47be b871 9dbd 8eff d63d 2bd5 01be
00000330: 4216 143e af4f b43d 9761 16be 0365 a03d
00000340: d3f0 223e 1851 363e 6ee2 39bd fd0a 233e
00000350: 7dd6 6bbd 9048 3f3e 56e0 ee3d 8204 8fbd
00000360: 825f c13d 3338 383e 1310 933e af54 e23d
00000370: 1bea 6f3c 7076 323d b95d 043e dfaf 5ebc
00000380: 1768 f03d 3628 93bc 14dc b03c c097 8bbe
00000390: b393 59be 8be5 ea3d 37d3 183e d78a 05be
000003a0: 2e12 383e f466 0fbe 7e6e 143e 67b2 973d
000003b0: c76d 3c3e af75 a8bd 2ed6 94bd f150 223e
000003c0: 74db 4c3e ea7d 36be 4388 f2bd ea92 1cbe
000003d0: 7c5b e03e d011 233e 9f5f d03d 9241 b73d
000003e0: b34c 2d3e 58bd 7a3e 3726 f1bd b565 843e
000003f0: 1dd2 373c 3e0d 25be fb92 973e 5c24 21bd
0.15226924 0.04752207 0.04168382 0.07098558 0.099112116 0.16315125 -0.18341805 0.13038087
-0.096064754 -0.14571187 0.13154295 0.118001424 0.14941722 -0.04937774 -0.14341037 -0.03690438
0.1659786 -0.14810732 0.22389586 -0.043121852 -0.06963393 0.27238098 -0.17870499 -0.22444244
0.08187269 0.060033906 0.04404576 -0.21056233 -0.026803065 0.11984091 0.07514335 -0.020437423
0.18063535 -0.06418891 0.14239882 -0.099956386 0.052361008 0.18300074 0.021263707 -0.07942247
-0.0020175339 0.13011022 0.17554712 -0.09309833 -0.13480951 -0.22139128 0.11171547 -0.16951142
-0.18987632 -0.117246464 0.19321248 -0.06747483 0.35982022 -0.13469392 0.07144027 0.040030897
0.060472444 0.24269238 0.053435847 -0.020470431 0.17064738 0.1847382 0.25349483 -0.07713377
-0.24216747 0.20353998 -0.07010356 0.07939139 0.07128025 0.2831081 -0.0888934 -0.054848555
-0.12474978 -0.047188677 -0.13010512 0.17387085 -0.056254406 -0.13205884 0.0637626 -0.023197923
-0.18970959 -0.050450426 0.1619376 -0.06854463 0.044307902 0.078430094 0.08803209 -0.050512753
-0.008184003 -0.09476341 -0.24429534 0.020443577 -0.16879311 -0.11755072 -0.0059618508 0.19472815
0.07746071 0.046246745 -0.047359627 -0.004491542 0.17142992 -0.060833994 0.019078849 0.15880135
0.14493138 0.20040265 0.13411844 -0.09992831 0.18620427 0.07082175 -0.10859943 -0.03995258
-0.0044371034 -0.007527541 0.0522271 -0.15379634 0.010112964 0.11655443 0.121996954 -0.13902293
0.022428567 0.16868833 -0.22153799 -0.12504563 0.07308827 0.029653389 0.11213908 0.19203886
0.19882908 -0.19833902 0.095451914 0.21232186 0.028977193 -0.005023202 -0.1349519 0.093539044
-0.22200118 0.1825497 0.124053866 0.10185521 -0.14700806 0.065626115 0.026294101 -0.083159536
0.17977789 0.24507731 0.036069665 -0.20280093 -0.11318529 0.112322256 0.4247083 -0.07831923
-0.14351468 0.4092551 -0.17548087 0.20545252 0.044776723 -0.19937764 0.063790716 -0.1306569
0.18694833 0.04379742 -0.14087331 -0.23800851 0.17883593 -0.11120351 -0.21507528 0.067804135
0.142649 0.090968855 -0.05397132 -0.013660601 -0.045847394 0.06820503 -0.19170853 0.062275272
-0.19650324 0.123864606 0.19947821 0.1623916 0.18743262 -0.08398963 0.096056744 -0.18386073
0.2012579 -0.115041375 0.09606272 -0.12520243 -0.40556332 -0.17733455 -0.42458206 -0.01749776
0.20638575 0.17776275 -0.08240453 -0.09143649 -0.099649884 0.061267342 -0.05582131 -0.18798152
-0.19446875 -0.07687706 0.10497962 -0.12678973 0.14461616 0.08804261 -0.14685665 0.078317665
0.1591218 0.17804372 -0.045381956 0.1592216 -0.0575776 0.18680024 0.116638824 -0.06983282
0.09442045 0.17990188 0.287232 0.11051308 0.014643217 0.043569982 0.12926377 -0.013591736
0.117386036 -0.01796351 0.021589316 -0.27264214 -0.21247749 0.11469563 0.14924322 -0.13041244
0.17975685 -0.14004117 0.14495274 0.074070744 0.18401252 -0.08225571 -0.07267414 0.15851189
0.2000559 -0.1782147 -0.11842396 -0.15290418 0.43819797 0.15924764 0.10174488 0.089480534
0.1692379 0.24486291 -0.11774867 0.25858846 0.0112195285 -0.16118333 0.29604325 -0.039341316

conv3.bias f4 [64]
00000000: 2830 913d cd76 88bd 0000 0000 ccdf bb3d
00000010: f1b1 293d 3d14 d0bb 6abf 863d 0417 a93c
00000020: f986 0abe b36e 483d 60b4 81bd c57c 07be
00000030: 19b0 81bd 30dd f3bd 6e2b 5abd b4c3 27bd
00000040: b067 59bc e328 f2bc 41c7 4d3c 92e0 8c3c
00000050: 63d2 51bc c7d6 533d 2905 0bbe 3143 7dbd
00000060: 1afc 4fbb 13e5 0c3d bd43 c2bb 9e72 4b3d
00000070: 8610 9b3d 59fa 063d 0ca5 d0bd 70ec ab3d
00000080: 1de1 13be 10ae f33d d515 b83c 0000 0000
00000090: 938c 17be f940 09be e7be 9a3d a866 b3bc
000000a0: 6462 b0bc 50d8 cb3d c56a dfbc bd2d 84bb
000000b0: 501d ccbb 0370 a0bc 77e7 df3d e1d2 a53c
000000c0: d81f 13bb e3de e6bd 2689 09bd b7db fbbb
000000d0: e08f 14be db12 d83d 546c 0ab9 0000 0000
000000e0: 283a 8eba f539 183d 5375 6dbd 0000 0000
000000f0: fee3 74bc f0ad b93b f4e7 1a3d 88ac 133e
0.07089263 -0.066632845 0.0 0.09173545 0.041429464 -0.006350069 0.06579478 0.020640858
-0.1352805 0.048933696 -0.06333232 -0.1323119 -0.06332416 -0.119074225 -0.053264074 -0.04095812
-0.01326935 -0.029560512 0.012559713 0.017196927 -0.012806508 0.0517185 -0.13576187 -0.061831657
-0.0031735958 0.03439815 -0.005928485 0.049669854 0.07571511 0.032953594 -0.1018773 0.08394706
-0.14441343 0.11898434 0.022471348 0.0 -0.14799719 -0.13403691 0.07555943 -0.021899536
-0.021531291 0.09953368 -0.027272591 -0.0040337727 -0.0062290803 -0.019584661 0.1093282 0.020242156
-0.00224494 -0.11272981 -0.03357806 -0.007686104 -0.14508009 0.105504714 -0.00013201061 0.0
-0.0010851072 0.037164647 -0.057973217 0.0 -0.014946936 0.005666487 0.037818864 0.14421284

conv3.lin.weight f4 [64, 64]
00000000: 046d 27bd 86fa 66be 640d 233d 9865 433d
00000010: 5c72 f4bd bbc2 c53d 2442 acbd 4052 35be
00000020: 1659 5dbe bb32 193d 022a 2b3e 9e05 6a3d
00000030: ae21 413d c347 c43d 9ccb 923c 473d 543e
00000040: 3f4c d63d 0184 8bbc 9599 803e 37c9 383e
00000050: e8ba 2f3d 2ea2 c8bd ff00 0dbe 2d6e 26be
00000060: 12b7 23be 75e8 98bd 0661 b33d b08c 43be
00000070: 915f 643e e91d 4e3e cd35 c1bc 0ecf 3f3e
00000080: 6c74 cd3d e3ba 093e d0fd 13be fee5 843e
00000090: 30e6 79bc b338 08bd 8c7b 1c3d 607c 4e3d
000000a0: 340b 76bc a255 89bd 9f9d 23bd 18b8 233e
000000b0: 0b62 32be 6d1c 87bc 8a89 563e fdd4 303e
000000c0: e6b0 1ebe c204 0e3d d796 48be aea5 53be
000000d0: 6483 123e dcae 3b3e 3b6e 5a3d 66b9 fcbd
000000e0: 2023 843e cd28 ac3d fc91 eabc 4ec6 23be
000000f0: 3b54 48be e33f dfbd a794 273d 8b87 683b
00000100: 5983 ae3c 3875 a03d a447 213e 1bb8 9c3d
00000110: 54f7 f0bd 811b e93d e0a3 e23c 8878 093e
00000120: a645 1ebc 1889 8e3b 029d ddbd 08e0 dd3c
00000130: c56b 39be 6c0c 04be 160c ffbd 80e3 d33c
00000140: 6322 e2bc 08c1 4abe 19f2 6d3d 4a8c c9bd
00000150: 875b e43d 562d 2c3e 4914 4abe 1073 3cbe
00000160: 48ca 883d d93c 813d e783 533e 367a 1dbd
00000170: 851b 9a3c a974 833c c292 b2be a3c4 82be
00000180: 731a 24be 7687 373e cf23 2c3d 407c e93d
00000190: 7c11 cf3d ba38 e5bd d705 483e cab2 70bc
000001a0: cbce 173e 3721 21bd 5f22 19bd 2064 1f3e
000001b0: fdd0 a23d c974 083d 91aa ab3d c64b adbc
000001c0: eb76 8f3d bafb 50bd 9ed2 ca3d 608c c7bd
000001d0: 645f 7cbb 1993 16be 9d56 b23d 2c7b 28be
000001e0: 2458 42be 6cef 8b3d a816 8ebe 75ad b1bd
000001f0: a33b 593e 0676 043e 07ba 25bd a285 593d
00000200: 06f2 d1bc 08fe a63d bb51 58be 3614 273d
00000210: b90a 6d3d 66ee 1abe 8c02 6abd 2cc1 51be
00000220: e18d bd3d bb7b 6b3d 3e27 44be 2bea 333e
00000230: ebdd d73d 146a 47be 930c aebc 95b4 13be
00000240: c7f1 413d 2541 0f3e 5da7 39bc a0f3 4dba
00000250: 4b99 2fbe a29b 4e3c 293c a3bc d5fc 08bb
00000260: c8ce 05be 8bf2 643c a2f0 5cbe 16df 123e
00000270: 0363 3d3e 64e1 2bbe 9e43 2fbe 825f 343e
00000280: adab 9ebd bd0b 23be e216 14be ef3e 47be
00000290: 467a 253e 93af 38bc 5b74 4fbe eb12 1a3e
000002a0: c7a5 073d 7a44 1abe 1ddc 223d 69ab f23d
000002b0: 5dfd de3d d93c c73d a79b 553e 2159 b23d
000002c0: acc3 8dbd 973a 50be 54d9 1cbe 7957 e7bc
000002d0: bc2b 7e3c a9be 46be 6c27 9abc 6a12 733c
000002e0: ad13 07be f6c5 27be 9186 333e 13a3 85bd
000002f0: 57c6 34be 4d97 32be 127d dc3d ece7 313d
00000300: 6378 80bd 400c 2cbe 8f98 87be e224 2a3d
00000310: b804 f03b 16fb 3a3e 26fe e93c 83df 253e
00000320: 7472 403e 4265 a6bc 66b6 1dbd 1079 4fbe
00000330: 7d2a ed3d 9acb 58be 296d 4fbd bd46 bf3d
00000340: 3e4f 53be 71d4 61bc ae8c cf3a b5c6 b7bd
00000350: caf6 45be 6128 16bd 3dc0 b6bd 6ef1 4a3e
00000360: b9d4 a4be d05d d13d 5166 94be 8f31 f3bd
00000370: 6d6a cf3d fa9b 0c3e bb6d 3ebe 8f1c 8ebb
00000380: e895 06be f901 2f3e d57b 833d 2992 95be
00000390: 32b5 c3be 7a80 fdbb db9a 30bb 9f19 04be
000003a0: a88a e63c a3dd cabd e39e fa3c 5d6c 2c3e
000003b0: 412c c2bd 0115 08be 5668 e33c e2db 7fbc
000003c0: 72a1 24be 7e4f 093e 2654 153e 4099 06be
000003d0: 4b84 d7bd 9770 3ebe 3d79 5d3c d502 31bd
000003e0: 93bf efba 3b65 ae3d d317 fbbd a954 b73d
000003f0: 6a4b e73d 59f2 6fbe 05b6 493e 2f1c b7bc
-0.04087545 -0.22556505 0.039807692 0.04770431 -0.11935875 0.096562825 -0.08411053 -0.17707157
-0.21616015 0.037401896 0.16715243 0.057134263 0.04715126 0.09584 0.017919354 0.207265
0.104637615 -0.017030718 0.25117174 0.18045507 0.042902857 -0.09796558 -0.13769911 -0.16252966
-0.15987805 -0.07466213 0.0875874 -0.19096637 0.2230208 0.20128597 -0.023585225 0.18731329
0.10031971 0.13450198 -0.1445229 0.2595672 -0.015252635 -0.033257198 0.03820376 0.050411582
-0.0150173195 -0.06705786 -0.03994524 0.15988195 -0.17420213 -0.016493047 0.20950904 0.17268749
-0.15497169 0.034672506 -0.19588791 -0.2066867 0.14307934 0.18328422 0.05332778 -0.123400494
0.25808048 0.0840622 -0.028634064 -0.15993616 -0.19563381 -0.10900857 0.04091325 0.003548118
0.021302866 0.07834858 0.15749985 0.07652303 -0.11765924 0.11382199 0.027666032 0.13424885
-0.00966016 0.004349839 -0.108209625 0.027084365 -0.18107517 -0.12895364 -0.12453477 0.025865316
-0.027604287 -0.19800198 0.05809221 -0.09841211 0.1115027 0.1681417 -0.197343 -0.18403268
0.06679207 0.06310434 0.20655786 -0.038446628 0.01881195 0.016046839 -0.34877592 -0.25540647
-0.16025715 0.17922768 0.042026337 0.11400652 0.10110757 -0.1119246 0.19533478 -0.014691064
0.14824979 -0.039338317 -0.037386294 0.15565538 0.079500176 0.0333145 0.08382142 -0.021154296
0.07005104 -0.051021315 0.09903453 -0.09743571 -0.0038509006 -0.14704551 0.087079264 -0.16453236
-0.18978935 0.068327755 -0.2775166 -0.086756624 0.21214156 0.12935647 -0.040460613 0.053105958
-0.025628101 0.08153921 -0.21124928 0.04079076 0.057871554 -0.15130004 -0.057131335 -0.20483845
0.09255577 0.057491045 -0.19155595 0.17569797 0.10540374 -0.1947406 -0.02124623 -0.14424355
0.047349717 0.13989694 -0.011331406 -0.00078564323 -0.1714832 0.012610348 -0.019926148 -0.0020902653
-0.13067162 0.013973842 -0.21576169 0.14342913 0.18494801 -0.16785198 -0.17115638 0.17614558
-0.07747588 -0.15922447 -0.14461854 -0.19457601 0.16159925 -0.011272329 -0.2025923 0.15046279
0.033117082 -0.15065184 0.039760698 0.118491 0.10888169 0.09728403 0.20860158 0.08708406
-0.06922087 -0.2033485 -0.15317279 -0.028239952 0.015513357 -0.19408669 -0.018817626 0.014835933
-0.131911 -0.1638411 0.17531802 -0.065252446 -0.17653786 -0.17440529 0.10766043 0.04343407
-0.06272962 -0.16801548 -0.2648358 0.04153908 0.0073247813 0.18259844 0.02856357 0.16198544
0.1879366 -0.020311955 -0.038504027 -0.20261025 0.115803696 -0.21171418 -0.050641213 0.09339664
-0.20635697 -0.01378356 0.0015834772 -0.08973447 -0.19332424 -0.036659602 -0.08923385 0.1981866
-0.32193545 0.102229714 -0.2898431 -0.11874687 0.10127721 0.13731375 -0.18596546 -0.0043369005
-0.13143122 0.17090596 0.064201035 -0.29213074 -0.3822418 -0.007736263 -0.002694777 -0.12900399
0.028142288 -0.09905555 0.030593341 0.16838212 -0.09481097 -0.13289262 0.027759712 -0.015616389
-0.16077211 0.1340923 0.14582881 -0.13144398 -0.1052328 -0.18597637 0.013517675 -0.04321559
-0.0018291346 0.08515402 -0.122604035 0.089516945 0.11293681 -0.23432292 0.19698341 -0.022352306

classifier.weight f4 [3, 64]
00000000: ebf7 9a3c 929f 093d a895 c5bc da73 0fbd
00000010: e5ee 06bd b672 00bd 6d09 5dbd 932a 633c
00000020: be7c b53d 4dfc bbbd 0217 c23d 83d6 083e
00000030: 504a 653d 53ad 87bc 6928 8d3a 56bc 0f3d
00000040: 2f46 563d c3ec 103e f2d8 16be a687 1cbd
00000050: 557d ae3d dcbf a53d fc44 fabc 7caf 833c
00000060: 8a75 90bd 5baf 8cbd d95e 91bd f44e 0abe
00000070: 97e6 96bd 1e1d 20be 7e05 b73c fb54 dabc
00000080: c68c 9abc 7c7d 77bd 7928 10be ea18 9bbd
00000090: 4c34 a03c c85b 8d3c 26fa c4bd 21be 553d
000000a0: 4cd3 d73d a87c f73d 55bd ae3b 6bbf 353a
000000b0: 8c34 2f3d 36c3 81bb c35a 0bbe 8515 16bd
000000c0: d4bb 513c b983 2f3c 21a2 4ebc 64c0 9c3d
000000d0: 50ec fb3d df9a 5ebe 83bb 6dbc a8e3 a33c
000000e0: 8d20 c13d 3308 933d 1031 fb3c 1876 d0bd
000000f0: 2918 b6bd 84fd 303d edc5 4e3d 951f 5ebe
00000100: b6eb 3f3d 3770 94bc 0c4b 50bd 7af4 03be
00000110: cd12 f138 503f f0bd dda4 8e3d 4153 403d
00000120: 687f f73c 6159 043e dc4e 123d 2408 903d
00000130: b9ba 503d 2ff1 70bd b48d 33be ba69 05bd
00000140: c299 36bd 79bb 5c3d cb2b d23e 3ebb 05be
00000150: 531d 80bd 2399 8abe 95ba ecbd 76b8 6cbd
00000160: 2e7c b23d 9b0e d53e 2c84 a6bd 7e99 dcbd
00000170: d412 843d 3485 b43e 93f0 94bc 859f 93bd
00000180: 8c4c b7bd a7ff 913d e45f ab3e e8da 22bd
00000190: cdb9 9cbd c727 6ebd b485 b43d 542b b23b
000001a0: 31f3 703d f6da 12be f776 a9bd 214d ec3d
000001b0: 1db0 d53d 26a3 e3bd 03ae 7abd 6f18 e4bd
000001c0: 25a1 a43b ffee 95bd d4dc 28bd d0fe 9fbd
000001d0: 5836 e43b 19f9 9fbd 7eff a5bd 1425 633d
000001e0: 1396 f5bd 2ed9 7dbe 40e0 bbbc c4da fe3d
000001f0: 7891 b7bd 1386 ad3d b45b 8dbe 4d21 083e
00000200: 4407 4b3d a02f c93c 3880 19bd 9818 dabc
00000210: c7f1 27bd c6bb 873d 8c50 15bd b058 76bc
00000220: d984 bbbc f93b c9bd e0db c43d bc4e 1dbd
00000230: 84ed 3cbd 8ae8 76bd 3bbb 74bc ba9e b8bc
00000240: 2e1b ec3c 6a06 89be 8a67 65be 39bd 423c
00000250: 7a4f 3fbe 2e32 d33c 6154 99be 365f d03b
00000260: 7ff4 05bd 653e 60be 6b91 243e 18f5 a4bd
00000270: c0de 09bd c20d 28be d8a0 0dbe 418a f73c
00000280: a529 2cbe 61cb e53d 1542 cdbd 40fc 063b
00000290: c236 aabc 617a 05be 2db4 20bd 02db e43d
000002a0: f231 3fbe 3c1d 133e 0681 ae3d f913 1a3d
000002b0: 0dec 6bbc 3a5e b1bd 4d26 f63d 24ac 303c
000002c0: 3784 1f3e 244c 4dbd 4170 523b 9577 18bd
000002d0: 187a 17be a6c5 c6bc d956 29bd a058 303c
000002e0: 6fdb 8abe 751a 0cbc 2eb5 9d3d 605d f3bb
000002f0: 624a ddbd 896f 5ebd 14d8 3fbd f99c e53d
0.018917045 0.033599444 -0.024119213 -0.035022594 -0.03294267 -0.031359397 -0.053964067 0.013865131
0.08861683 -0.09178982 0.09477045 0.1336308 0.055979073 -0.01656214 0.001076949 0.03509172
0.052313026 0.14152817 -0.14731196 -0.038215302 0.08519999 0.08093235 -0.030550472 0.016074888
-0.07053669 -0.06869384 -0.07098169 -0.1350668 -0.073682 -0.15636107 0.022341486 -0.02665185
-0.018865954 -0.060422406 -0.14077939 -0.07573111 0.019556187 0.017255679 -0.096180245 0.052183274
0.105383486 0.12084323 0.0053326287 0.00069331256 0.042774722 -0.0039600385 -0.13608842 -0.036641616
0.012801129 0.0107125575 -0.012611897 0.07653883 0.123009324 -0.21738766 -0.014510038 0.020006016
0.09430037 0.07179298 0.030663043 -0.101787746 -0.08891327 0.04321052 0.050481725 -0.21691735
0.04685565 -0.018119914 -0.05085282 -0.12886229 0.000114952774 -0.11730826 0.06965039 0.046954397
0.03021212 0.1292472 0.035719737 0.07032803 0.050959323 -0.05882376 -0.17534524 -0.03257153
-0.04458023 0.053889725 0.41049036 -0.13059708 -0.06255593 -0.2706996 -0.11559025 -0.057793103
0.08715092 0.41612706 -0.081306785 -0.10771464 0.06448904 0.35257876 -0.018181121 -0.0720816
-0.08950147 0.0712884 0.33471596 -0.039759547 -0.07652626 -0.058143403 0.08814564 0.005437294
0.058825675 -0.1434134 -0.08274644 0.11538149 0.104339816 -0.111151025 -0.061201107 -0.11137473
0.0050240927 -0.073209755 -0.041226223 -0.078122735 0.006964486 -0.078111835 -0.08105372 0.055455282
-0.11991515 -0.24789879 -0.02293408 0.1244407 -0.08963293 0.08472838 -0.27609026 0.13293953
0.049567476 0.024558842 -0.037475795 -0.026623055 -0.04100206 0.06627612 -0.03645377 -0.015035793
-0.022890495 -0.09825892 0.0961225 -0.038405165 -0.04612495 -0.06028036 -0.014937217 -0.022536624
0.028821554 -0.26762706 -0.22402778 0.0118859345 -0.18682662 0.025780763 -0.29947188 0.0063590063
-0.032703873 -0.21898802 0.16071098 -0.080545604 -0.033659697 -0.16411498 -0.13830888 0.030217292
-0.16812761 0.11220432 -0.1002237 0.002059713 -0.020778064 -0.13034965 -0.03923433 0.11174585
-0.18671396 0.14366621 0.08520703 0.037616704 -0.014399541 -0.086605504 0.12019024 0.010783229
0.1557778 -0.05012144 0.0032110366 -0.037223417 -0.14792669 -0.024264168 -0.04134259 0.010763317
-0.2712054 -0.00855123 0.07700573 -0.0074269027 -0.10805203 -0.054305587 -0.046836928 0.11211581

classifier.bias f4 [3]
00000000: 309e 65be b652 0d3e 162d a03d
-0.22423625 0.13801083 0.078210995
