Models/model_gnn_regression_2.pth (torch, 39906 bytes, 9 tensors)

conv1.bias f4 [64]
0.9312854 5.262995 0.0 -0.069077045 0.0 -1.2565694 0.0 0.0
-0.09451413 2.587301 0.0 0.0 -0.24358217 -0.8084199 0.0 1.0600709
1.3836795 0.0 5.066934 0.018167527 3.860144 -0.076595105 -0.09801838 3.768888
-0.10058641 0.0 0.0 7.479955 11.320953 1.3482016 1.2347292 3.6357627
3.627598 -0.06348695 0.6400748 0.0 1.173414 -0.04706292 -0.3640998 0.0
5.125536 1.8381758 -1.0434219 0.0 3.4962323 5.890471 4.324775 -0.53921986
0.0 0.48271242 1.3565567 2.5769525 5.179537 1.6979586 -0.042827718 6.5282984
-0.35019627 0.0 5.550661 1.9072524 7.4643683 5.185275 0.0 -0.06758559
00000000: b868 6e3f 746a a840 0000 0000 4478 8dbd
00000010: 0000 0000 44d7 a0bf 0000 0000 0000 0000
00000020: a090 c1bd 5796 2540 0000 0000 0000 0000
00000030: 9b6d 79be 9bf4 4ebf 0000 0000 67b0 873f
00000040: 691c b13f 0000 0000 5324 a240 11d4 943c
00000050: 990c 7740 e5dd 9cbd dcbd c8bd 7635 7140
00000060: 3f00 cebd 0000 0000 0000 0000 cb5b ef40
00000070: a022 3541 df91 ac3f 9b0b 9e3f 56b0 6840
00000080: 912a 6840 7205 82bd f1db 233f 0000 0000
00000090: 6e32 963f 0cc5 40bd 4a6b babe 0000 0000
000000a0: 6404 a440 5849 eb3f d98e 85bf 0000 0000
000000b0: 45c2 5f40 bd7e bc40 8f64 8a40 500a 0abf
000000c0: 0000 0000 1526 f73e a6a3 ad3f caec 2440
000000d0: c4be a540 b556 d93f 1e6c 2fbd d2e7 d040
000000e0: ed4c b3be 0000 0000 049f b140 d920 f43f
000000f0: 1bdc ee40 c6ed a540 0000 0000 506a 8abd

conv1.lin.weight f4 [64, 3]
-0.48689073 -0.22992152 -0.33062893 -1.9725922 -0.28885278 0.75195825 -0.04531789 -0.24990508
0.20771648 -0.36728033 -0.022376265 -0.25080115 -0.18712619 -0.26280543 -0.2010541 0.12865652
-0.68490785 -0.5526857 -0.12461517 0.013699741 -0.24137913 -0.11309923 -0.22563781 -0.23438972
-0.062952794 -0.03005983 -0.012735591 -1.2341002 -0.69725835 0.24950969 -0.15508527 -0.01899982
0.19834007 -0.0961956 -0.122017875 -0.045196384 0.0024648968 -0.12824698 -0.10543199 0.07155761
-0.56880057 -0.48855057 -0.07490552 -0.11445387 0.045669384 -0.284155 -0.2755249 -0.19341548
-0.290233 -0.36036462 -0.19114268 -0.27286324 -0.22615358 -0.20497671 -1.9304577 -0.52530986
0.5846755 -0.0012522689 -0.118499145 0.05315769 -1.4746492 -0.5513303 0.73525524 -0.4529595
-0.020244202 -0.42613396 -0.105149925 -0.009060698 0.1382457 -3.4918466 1.1073428 0.3149888
-0.06663243 -0.11089157 0.10496666 -0.26716602 -0.1532514 -0.24010725 -0.12809001 -0.24921606
-0.24219495 -2.6418135 -0.63041407 3.4990816 -0.4381875 -0.0029497114 8.205609 -0.51873624
-0.28866512 -0.30768895 -0.34991714 -0.30457336 -0.20316164 -2.4822576 -0.79154956 0.6641089
-2.75835 -0.7366573 0.26673394 -0.0819447 -0.012033316 -0.30897453 -0.17067884 -0.15658836
-0.076835915 -0.15848793 -0.17859481 -0.038874216 -0.5778103 -0.35598025 0.007861929 0.00042378684
-0.045710057 0.05872403 0.05620021 -0.2997013 -0.45961708 -0.06209727 -0.16435151 0.14925879
-2.257916 -0.5162612 1.101704 -0.8164221 -0.43224823 -0.097815834 0.054722454 -0.61765754
-0.38388324 -0.19624853 -0.08087784 0.047708243 -1.6792254 0.021147216 0.62013984 -2.233447
-0.58994776 2.0946333 -2.4676268 -1.0594637 0.482162 0.060084105 -0.28763115 -0.6814509
-0.17330326 -0.058257066 -0.061444085 -0.17813244 -0.1632964 -0.019607443 -0.24927793 -0.38365653
-0.056981213 -1.2871118 -0.61824197 0.38738984 -2.235236 -0.5595829 1.3087443 -0.60240096
-0.39512303 -0.41618448 0.048809964 -0.33009717 -0.17288111 -2.152434 -0.6441486 1.8211896
-0.050235182 -0.39046332 -0.5153573 -0.20321293 -0.2925719 -0.105613425 -2.2923892 -0.59161544
1.176969 -0.6171373 -0.51200557 -0.06837541 -2.4329684 -0.61260724 3.02564 -2.5886223
-0.3816176 0.87920105 -0.25457975 -0.27315593 -0.0886957 -0.017018154 -0.010738244 -0.24333854
00000000: be49 f9be 8c70 6bbe 3248 a9be e77d fcbf
00000010: 83e4 93be 5680 403f 409f 39bd 1ee7 7fbe
00000020: a1b3 543e 2b0c bcbe 6e4e b7bc 0269 80be
00000030: 029e 3fbe 6f8e 86be 20e1 4dbe 89be 033e
00000040: 1f56 2fbf cf7c 0dbf 3d36 ffbd e174 603c
00000050: 172c 77be 92a0 e7bd 990d 67be dc03 70be
00000060: 65ed 80bd 0840 f6bc f1a8 50bc fff6 9dbf
00000070: 867f 32bf 787f 7f3e acce 1ebe 83a5 9bbc
00000080: a919 4b3e 3302 c5bd 82e4 f9bd d81f 39bd
00000090: 1b8a 213b 2d53 03be baec d7bd cc8c 923d
000000a0: ea9c 11bf 4d23 fabe 1168 99bd ca66 eabd
000000b0: d20f 3b3d c47c 91be 9a11 8dbe b50e 46be
000000c0: 6b99 94be b681 b8be e8ba 43be bbb4 8bbe
000000d0: ce94 67be 6ae5 51be 3d19 f7bf b57a 06bf
000000e0: 4bad 153f 2c23 a4ba aeaf f2bd e1bb 593d
000000f0: 4ec1 bcbf fc23 0dbf b039 3c3f 4fea e7be
00000100: 2bd7 a5bc 3b2e dabe d858 d7bd 5273 14bc
00000110: 4890 0d3e 6a7a 5fc0 69bd 8d3f 3646 a13e
00000120: 9576 88bd 1f1b e3bd c3f8 d63d fcc9 88be
00000130: efed 1cbe adde 75be 072a 03be 7f32 7fbe
00000140: f401 78be 7913 29c0 d162 21bf f4f0 5f40
00000150: 1d5a e0be f24f 41bb 2d4a 0341 e6cb 04bf
00000160: eacb 93be 6889 9dbe 5728 b3be 0af1 9bbe
00000170: 9b09 50be 4fdd 1ec0 fea2 4abf 0a03 2a3f
00000180: ce88 30c0 9395 3cbf 5a91 883e 9fd2 a7bd
00000190: 6327 45bc e931 9ebe 6fc6 2ebe b358 20be
000001a0: 265c 9dbd a94a 22be 8fe1 36be 923a 1fbd
000001b0: 60eb 13bf 0b43 b6be 52cf 003c b52f de39
000001c0: 783a 3bbd 9c88 703d 3132 663d 7372 99be
000001d0: ee52 ebbe b559 7ebd c34b 28be 4cd7 183e
000001e0: b281 10c0 b229 04bf a304 8d3f 0a01 51bf
000001f0: a44f ddbe ab53 c8bd a724 603d ce1e 1ebf
00000200: 588c c4be 60f5 48be 48a3 a5bd b869 433d
00000210: dcf0 d6bf ed3c ad3c 7cc1 1e3f ccf0 0ec0
00000220: d106 17bf 790e 0640 99ed 1dc0 829c 87bf
00000230: f0dd f63e c01a 763d 6444 93be 9173 2ebf
00000240: 6976 31be f69e 6ebd cbac 7bbd 5a68 36be
00000250: 2c37 27be ca9f a0bc b742 7fbe a16e c4be
00000260: 2265 69bd 14c0 a4bf 1b45 1ebf f657 c63e
00000270: 1b0e 0fc0 d340 0fbf ef84 a73f f336 1abf
00000280: 914d cabe 2216 d5be f5ec 473d 7f02 a9be
00000290: bf07 31be 7bc1 09c0 ece6 24bf be1c e93f
000002a0: 68c3 4dbd cfea c7be 75ee 03bf 0d17 50be
000002b0: fccb 95be da4b d8bd 81b6 12c0 1c74 17bf
000002c0: eca6 963f b6fc 1dbf cc12 03bf 6808 8cbd
000002d0: c1b5 1bc0 d4d3 1cbf 16a4 4140 fdab 25c0
000002e0: 6263 c3be 5213 613f 4758 82be 18db 8bbe
000002f0: 17a6 b5bd a869 8bbc 76ef 2fbc bd2d 79be

conv2.bias f4 [64]
-0.27328813 -0.21467243 9.915077 -0.3340418 -0.105195366 0.82126105 -0.017133286 -0.3358546
-0.058565613 -0.26506108 -0.24485014 9.621272 -0.20319532 2.4804428 3.0418222 -0.092347674
-0.122549824 -0.005482713 -0.0019144838 11.631788 -0.30935904 0.0 -0.12523337 -0.27695373
6.1570234 -0.19667323 -0.19999805 -0.0041086255 1.5226433 -0.19125284 5.8976917 -0.65320563
-0.00081345125 8.96747 8.281918 4.525305 -0.050655395 -0.3039146 2.5369809 -0.090534404
2.037336 4.8999147 8.659322 0.0 4.2096014 -0.06005504 -0.3032062 -0.5388356
5.427614 -0.21794902 -0.08647766 -0.44014403 0.0 -0.2873357 -0.5270763 -0.19548075
-0.12842807 -0.2091453 3.2409275 10.401576 -0.3304 4.8027887 -0.051614515 7.868365
00000000: 6cec 8bbe 17d3 5bbe 28a4 1e41 8707 abbe
00000010: ab70 d7bd 2a3e 523f 1b5b 8cbc 22f5 abbe
00000020: 7fe2 6fbd 16b6 87be ffb9 7abe bbf0 1941
00000030: 6f12 50be 93bf 1e40 37ad 4240 c720 bdbd
00000040: 67fb fabd 55a8 b3bb 6bef faba ce1b 3a41
00000050: 4f64 9ebe 0000 0000 2d3d 00be e1cc 8dbe
00000060: 5606 c540 b564 49be 4acc 4cbe a6a1 86bb
00000070: fae5 c23f c9d7 43be e4b9 bc40 7c38 27bf
00000080: ca3d 55ba c27a 0f41 bc82 0441 4ccf 9040
00000090: 087c 4fbd b29a 9bbe e55d 2240 1a6a b9bd
000000a0: b763 0240 1acc 9c40 958c 0a41 0000 0000
000000b0: 0eb5 8640 46fc 75bd d83d 9bbe 21f1 09bf
000000c0: 04af ad40 072e 5fbe 331b b1bd 8f5a e1be
000000d0: 0000 0000 aa1d 93be 79ee 06bf 1b2c 48be
000000e0: a682 03be 2f2a 56be 5b6b 4f40 db6c 2641
000000f0: 302a a9be 72b0 9940 be69 53bd a5c9 fb40

conv2.lin.weight f4 [64, 64]
-0.10232805 0.15045068 -0.079112984 0.16344316 -0.19478564 -0.38287133 -0.16026872 0.06845621
0.00415294 -0.22984748 -0.09810916 0.09284577 0.18599059 -0.37841052 -0.2165042 -0.16564395
-0.101057366 0.11944908 -0.035440072 -0.090201184 0.19644369 0.030192522 -0.15978079 -0.15308344
-0.07989659 0.12877873 0.007354875 -0.4111395 -0.19663511 -0.09459465 0.009296168 -0.3168738
-0.036925595 0.097053215 -0.09358836 -0.044637777 0.0758672 -0.2009382 -0.1453621 0.046745904
-0.16088046 -0.47313762 -0.25693873 -0.09163543 -0.101078756 0.14076677 -0.14167914 -0.46404788
-0.10653808 -0.027265253 -0.16863193 0.051429667 0.12557413 -0.3462405 -0.1444045 0.09394678
-0.112377055 -0.12241561 -0.36517525 -0.38623592 0.05519634 0.07109632 -0.1289663 0.16674168
0.06894523 -0.23985958 0.17300881 -0.06662074 0.07140312 -0.24318238 0.18385366 0.15392323
-0.11990717 -0.10818491 -0.0010534433 0.04763868 0.03469292 -0.28154907 -0.12054457 -0.1829077
-0.05992902 -0.036862697 -0.25475782 -0.25837317 -0.27304476 0.08764233 -0.086912714 -0.022727774
0.03519772 -0.21560547 0.106332816 -0.27085564 -0.05000168 -0.089717865 -0.11705514 -0.17700286
-0.09883114 0.16651523 -0.124127634 -0.010070222 -0.31429565 -0.105666876 -0.06507602 -0.121825725
-0.17333648 -0.21979474 -0.27075678 0.14452471 -0.5010311 -0.3507944 -0.07446444 -0.14495021
-0.099634275 -0.2620513 -0.022145767 -0.091298364 -0.07199234 -0.2393353 -0.0052759144 -0.0042984164
-0.17531352 -0.14705007 -0.05299414 -0.20970735 -0.017620485 -0.24463281 0.014721158 -0.18615623
-0.52155346 1.2915013 -0.11801167 0.15753151 -0.0028634684 0.19954178 -0.124360226 0.14007841
0.08348125 -0.089847654 -0.1281611 -0.10311996 0.03180354 0.2088112 -0.09607261 -0.27852657
-0.13077953 -0.17796138 0.8625489 -0.049950566 1.7896042 0.049990796 -0.20512652 5.4633017
0.20499037 -0.11092322 0.0042331303 -6.5911655 -0.14437845 -0.64033127 -0.17651458 0.12362183
2.0302136 0.1895938 0.08377274 -0.15238637 -0.23188908 0.19611672 0.11504684 0.120187566
-0.15185148 0.35971677 0.4635422 0.17187503 0.27800313 -2.4896235 0.32129285 -0.032658905
-0.17158647 0.25313136 0.08698544 -0.24043249 -0.10961846 0.49374598 0.13219734 -4.4565244
0.27602553 0.09856937 0.80787534 0.4023376 -8.807012 2.5156972 -0.05874317 0.06348847
0.15058976 0.11384378 0.00627428 0.19531398 0.08379244 -0.24749543 -0.073472254 0.20788404
0.066883475 -0.30275905 -0.016893318 0.15465717 -0.22726588 -0.1088693 -0.19716923 -0.14295606
0.031144083 0.08904208 -0.20773013 0.14676456 -0.04150666 0.08225984 -0.17163213 -0.051012818
0.20812027 0.006367969 -0.0031554261 -0.316797 -0.34299842 -0.14239974 0.03747027 -0.36288583
-0.13095029 0.08959182 0.08578692 -0.2062701 -0.1533957 -0.089794874 -0.099119954 -0.19991562
-0.20377856 0.08410773 -0.28705585 0.19537105 -0.05928966 -0.094600655 -0.24815275 -0.030601019
0.090610296 0.106394246 -0.25507292 -0.016693097 -0.03179354 0.0120049985 0.08255504 -0.2454459
-0.08233601 -0.039247885 -0.1644749 -0.12990728 0.19326204 0.020704975 -0.05105762 -0.033580545
00000000: 5e91 d1bd be0f 1a3e fd05 a2bd a55d 273e
00000010: e375 47be b607 c4be 7c1d 24be c532 8c3d
00000020: 6315 883b 235d 6bbe 75ed c8bd ec25 be3d
00000030: 5174 3e3e 06bf c1be 47b3 5dbe 919e 29be
00000040: 2af7 cebd b8a1 f43d 9c29 11bd 66bb b8bd
00000050: 8928 493e 4f56 f73c 939d 23be e8c1 1cbe
00000060: d3a0 a3bd 92de 033e 2a01 f13b e080 d2be
00000070: b75a 49be d7ba c1bd f44e 183c 483d a2be
00000080: 4b3f 17bd d6c3 c63d 41ab bfbd 1ad6 36bd
00000090: 4360 9b3d bec2 4dbe cdd9 14be a278 3f3d
000000a0: d9bd 24be 183f f2be 798d 83be 5bab bbbd
000000b0: 6102 cfbd 2a25 103e 5614 11be af97 edbe
000000c0: a330 dabd 615b dfbc d9ad 2cbe eaa7 523d
000000d0: 8196 003e 6f46 b1be c6de 13be 2b67 c03d
000000e0: f125 e6bd 09b5 fabd 40f8 babe b7c0 c5be
000000f0: 8f15 623d f39a 913d be0f 04be 55be 2a3e
00000100: 2833 8d3d c09d 75be 3929 313e 7470 88bd
00000110: cd3b 923d cd04 79be 2244 3c3e 0d9e 1d3e
00000120: e491 f5bd 0d90 ddbd b113 8aba c720 433d
00000130: 2a1a 0e3d 3327 90be 12e0 f6bd 284c 3bbe
00000140: 2278 75bd 57fd 16bd 9e6f 82be 7d49 84be
00000150: 86cc 8bbe d27d b33d 4bff b1bd 992f babc
00000160: 7c2b 103d aec7 5cbe 05c5 d93d 97ad 8abe
00000170: 90ce 4cbd 00be b7bd 9bba efbd 3d40 35be
00000180: fb67 cabd f882 2a3e a136 febd 93fd 24bc
00000190: 5ceb a0be e067 d8bd 9446 85bd c47f f9bd
000001a0: 1e7f 31be df11 61be a2a0 8abe 49fe 133e
000001b0: 9343 00bf 539b b3be d080 98bd d46d 14be
000001c0: 0e0d ccbd 972b 86be 0a6b b5bc a3fa babd
000001d0: b870 93bd 5014 75be 94e1 acbb bbd9 8cbb
000001e0: 6385 33be 4b94 16be 6210 59bd 86bd 56be
000001f0: d658 90bc 0681 7abe 0331 713c bd9f 3ebe
00000200: 8784 05bf ea4f a53f 1ab0 f1bd f14f 213e
00000210: 07a9 3bbb ae54 4c3e 93b0 febd b770 0f3e
00000220: 38f8 aa3d 0c02 b8bd aa3c 03be 8f30 d3bd
00000230: 6e44 023d 9ad2 553e b7c1 c4bd 099b 8ebe
00000240: 12eb 05be 823b 36be 01d0 5c3f f798 4cbd
00000250: c011 e53f 26c3 4c3d b00c 52be 5ed3 ae40
00000260: ffe8 513e b72b e3bd 12b6 8a3b d4ea d2c0
00000270: f2d7 13be c0ec 23bf 3dc0 34be 712d fd3d
00000280: 05ef 0140 e124 423e 0b91 ab3d 2c0b 1cbe
00000290: 5574 6dbe d2d2 483e ad9d eb3d e624 f63d
000002a0: f47e 1bbe cc2c b83e 6755 ed3e 0200 303e
000002b0: 6d56 8e3e fe55 1fc0 7f80 a43e 58c5 05bd
000002c0: 5db4 2fbe 6f9a 813e 6c25 b23d ef33 76be
000002d0: a57f e0bd 46cc fc3e bd5e 073e d99b 8ec0
000002e0: 3853 8d3e bdde c93d ebd0 4e3f 32ff cd3e
000002f0: 85e9 0cc1 2f01 2140 ae9c 70bd 3e06 823d
00000300: 3434 1a3e ed26 e93d 7a98 cd3b 6300 483e
00000310: 5f9b ab3d 716f 7dbe 9f78 96bd 8edf 543e
00000320: 34fa 883d 3c03 9bbe db63 8abc 735e 1e3e
00000330: 63b8 68be def6 debd bbe6 49be 1363 12be
00000340: e021 ff3c b25b b63d 35b7 54be 7349 163e
00000350: e302 2abd d977 a83d 55c0 2fbe d1f2 50bd
00000360: 7b1d 553e 65aa d03b 44cb 4ebb 3733 a2be
00000370: 7d9d afbe 3dd1 11be 6d7a 193d 2ccc b9be
00000380: d517 06be eb7b b73d 0db1 af3d 7838 53be
00000390: c313 1dbe 60e6 b7bd 67ff cabd aeb6 4cbe
000003a0: 54ab 50be ac40 ac3d fcf8 92be 590f 483e
000003b0: b7d9 72bd fdbd c1bd c11b 7ebe fdae fabc
000003c0: e491 b93d 3ae5 d93d eb98 82be f6bf 88bc
000003d0: f139 02bd 9db0 443c 9e12 a93d 2c56 7bbe
000003e0: c89f a8bd 64c2 20bd 1c6c 28be 6a06 05be
000003f0: 7ce6 453e 7b9d a93c cc21 51bd c18b 09bd

conv3.bias f4 [64]
-0.23867713 -0.40751216 10.2458935 -0.17085451 -0.36530116 -0.10583655 2.5330865 8.590814
-0.5859693 -0.089581065 -0.3987922 1.7194475 -1.197277 2.083634 -0.31765807 -0.47277927
-0.10825208 3.6335332 2.6084976 -0.4378103 -0.48457748 8.410674 4.3388515 -0.50334036
-0.06005505 -0.613991 0.53384066 -0.317658 1.0803187 2.9435887 -0.11694153 7.085987
8.674676 -0.31765822 -0.27390456 -0.39479917 -0.29497936 -0.31765822 7.3570285 -0.2843814
-0.6346459 -0.37771267 -0.33618203 -0.3476741 -0.118218414 -0.49350482 5.256812 -0.61525136
-0.5752828 7.263941 -0.01278441 -0.8593242 -0.09375077 -0.3289336 9.698531 -0.017040454
-0.9266153 -0.63406813 -0.10992703 -0.31504747 0.92938894 1.7562133 -0.37771332 -2.2884004
00000000: c767 74be 6fa5 d0be 2eef 2341 7cf4 2ebe
00000010: c108 bbbe d5c0 d8bd 171e 2240 f973 0941
00000020: 1602 16bf 4776 b7bd 7e2e ccbe db16 dc3f
00000030: 5f40 99bf 425a 0540 14a4 a2be 2010 f2be
00000040: 44b3 ddbd cf8b 6840 a0f1 2640 ac28 e0be
00000050: 8a1a f8be 1f92 0641 dfd7 8a40 eada 00bf
00000060: 49fc 75bd 842e 1dbf c8a9 083f 12a4 a2be
00000070: e247 8a3f c263 3c40 0a7f efbd 68c0 e240
00000080: 79cb 0a41 19a4 a2be 383d 8cbe 1e23 cabe
00000090: 8907 97be 19a4 a2be c76c eb40 709a 91be
000000a0: 2778 22bf 8e63 c1be 0d20 acbe 5702 b2be
000000b0: 7f1c f2bd aaac fcbe ce37 a840 1d81 1dbf
000000c0: bc45 13bf 3472 e840 b475 51bc acfc 5bbf
000000d0: 6700 c0bd fc69 a8be 2f2d 1b41 6c98 8bbc
000000e0: a936 6dbf 4a52 22bf 6c21 e1bd e74d a1be
000000f0: 6fec 6d3f 99cb e03f a463 c1be 2775 12c0

conv3.lin.weight f4 [64, 64]
-0.20607962 -0.0100283595 -0.094935566 0.12945457 -0.03391878 0.13350658 -0.15275899 0.03800095
-0.16149896 0.061105676 -0.09268639 -0.32463238 0.09746434 -0.13652766 0.13609262 -0.08664241
0.024638355 -0.1012304 -0.24279237 -0.42054972 0.1729718 -0.14300054 -0.13239178 0.030899085
-0.07059637 0.010040206 0.0719625 -0.17309019 -0.13566706 -0.057705704 -0.27624014 -0.004269984
0.09126302 -0.07133874 -0.26863974 -0.04302122 -0.17340523 0.39389077 -0.01597538 -0.015726443
-0.12352593 0.056083504 -0.22627984 -0.15471685 -0.084247924 -0.21402855 -0.24840719 -0.2485139
-0.10020993 0.10875499 0.13558638 0.18642199 0.06508998 -0.13073628 0.13061722 0.021387434
-0.04046313 0.072286196 -0.09693806 -0.4804781 -0.14613561 -0.17474921 -0.16714443 0.15640834
-0.09254578 -0.13324156 -0.542182 -0.108434044 -0.10276472 -0.34389064 0.12437795 -0.22359008
-0.094398625 -0.14224105 -0.21190025 -0.8663741 -0.0567596 -0.34480903 -0.47218797 -0.0916091
-0.013861461 -0.087559596 -0.26604396 -0.07340044 -0.09605916 -0.0076045827 0.021929616 0.21363759
-0.5568947 0.19978498 -0.12047793 -0.09924949 -0.47123137 -0.17435986 -0.7023724 -0.15223081
0.055159487 -0.737668 -0.85876155 -0.4413301 -0.20999366 -0.17088048 -0.41611406 0.09959178
-0.5957134 -0.3759078 -0.94038 0.21320051 -0.45789367 -0.10715466 -0.21257389 0.05677858
-0.43815613 0.0834852 -0.22907744 -0.1578996 0.21194631 0.21319252 -0.062134497 -0.023778355
-0.08392629 -0.094010785 -0.4402538 -0.49025127 0.030927723 -0.46703258 0.11457569 -0.76556116
-0.20899624 -0.07471973 1.1452522 0.33387 0.24838704 -8.234345 -0.13359158 -0.08471197
-0.33540675 -0.23150438 -0.34019345 0.05655868 0.26601627 -11.06218 -5.833806 -0.008513755
0.26448748 -0.68306494 -0.08054455 2.7025604 0.0080010975 0.14416182 -0.38307464 0.1256988
-1.9320866 0.20714296 0.28604814 -1.424705 -6.668014 -0.2735965 -1.1634132 -0.24898556
-0.40566364 1.0431734 0.64328957 -1.1490356 0.011303492 -0.18134046 -10.627795 0.21842013
-6.0125628 -1.1713765 0.08945524 -0.12816516 -13.454258 -0.10817971 -0.020960838 -0.21374452
-1.0077492 -0.332169 0.20966707 -0.03447191 -0.11911415 0.32816684 0.24087152 -0.42099705
-0.20589574 -0.09117432 -13.504812 -0.08972305 -0.24380246 -4.569609 0.2453791 0.5029312
-0.043891493 -0.1769383 -0.48130506 0.20014347 -0.008312444 -0.56018615 -0.2466797 0.105879076
0.024899472 0.04210142 -0.04227948 -0.043588255 -0.20325871 -0.13080224 -0.23947234 -0.1353883
-0.16596936 -0.23347443 -0.27954867 -0.0008550389 -0.02679797 0.055039857 0.06632073 0.1031037
-0.50774217 -0.17876668 -0.012368254 -0.0614488 -0.29791188 0.086079374 -0.46317586 -0.20326906
-0.22638091 -0.32529932 -0.21887812 -0.26256692 -0.26417565 0.06909505 -0.21631035 -0.17900246
-0.099263035 -0.13173713 -0.32838938 0.050710432 -0.16163044 -0.08274021 -0.26202244 -0.011713548
-0.483359 0.18330978 0.04420508 0.0831561 0.21543649 -0.052584544 -0.0009982624 0.15553604
-0.019936342 -0.18216726 -0.06779165 -0.019450322 0.029591726 -0.24329455 0.12757772 -0.41433257
00000000: 8906 53be fd4d 24bc 946d c2bd bd8f 043e
00000010: 6bee 0abd f3b5 083e da6c 1cbe e2a6 1b3d
00000020: fc5f 25be f249 7a3d 5dd2 bdbd 3736 a6be
00000030: 629b c73d e8cd 0bbe dd5b 0b3e 9371 b1bd
00000040: 60d6 c93c e251 cfbd 909e 78be 4b52 d7be
00000050: 851f 313e bc6e 12be b691 07be 1420 fd3c
00000060: d494 90bd ad7f 243c 1361 933d 8e3e 31be
00000070: 4eec 0abe d15c 6cbd 596f 8dbe 39eb 8bbb
00000080: 1be8 ba3d 0c1a 92bd 268b 89be 0537 30bd
00000090: 2491 31be 0dac c93e cdde 82bc bed4 80bc
000000a0: 2afb fcbd d1b7 653d e7b5 67be 186e 1ebe
000000b0: 2d8a acbd 4d2a 5bbe 745e 7ebe 6e7a 7ebe
000000c0: dd3a cdbd f0ba de3d 28d7 0a3e 68e5 3e3e
000000d0: e54d 853d bbdf 05be 85c0 053e b334 af3c
000000e0: abbc 25bd c90a 943d 7687 c6bd 3a01 f6be
000000f0: 93a4 15be 75f1 32be e927 2bbe 8229 203e
00000100: a488 bdbd 7a70 08be 71cc 0abf ab12 debd
00000110: 4f76 d2bd 6f12 b0be deb9 fe3d ccf4 64be
00000120: 1154 c1bd a3a7 11be 61fc 58be b1ca 5dbf
00000130: c17c 68bd cf8a b0be 9fc2 f1be 8d9d bbbd
00000140: 2e1b 63bc 7252 b3bd ea36 88be f852 96bd
00000150: aaba c4bd dd2f f9bb bda5 b33c d0c3 5a3e
00000160: a790 0ebf 6f94 4c3e 22bd f6bd 5143 cbbd
00000170: 3d45 f1be 648b 32be adce 33bf 65e2 1bbe
00000180: eaee 613d cfd7 3cbf ccd7 5bbf 05f6 e1be
00000190: 9408 57be 4bfb 2ebe e70c d5be c6f6 cb3d
000001a0: ac80 18bf fd76 c0be bebc 70bf 3c51 5a3e
000001b0: 0a71 eabe e773 dbbd f8ac 59be a890 683d
000001c0: 0056 e0be 4afa aa3d 4793 6abe 6fb0 21be
000001d0: 7408 593e 244f 5a3e be80 7ebd d3ca c2bc
000001e0: 8ce1 abbd ba88 c0bd f268 e1be 3702 fbbe
000001f0: 235c fd3c e51e efbe a9a6 ea3d d1fb 43bf
00000200: 1c03 56be a806 99bd a097 923f 02f1 aa3e
00000210: 2c59 7e3e e1bf 03c1 3bcc 08be 787d adbd
00000220: 6fba abbe 7c0f 6dbe d62d aebe 13aa 673d
00000230: 4933 883e b0fe 30c1 8aae bac0 477d 0bbc
00000240: e76a 873e 58dd 2ebf 8bf4 a4bd c0f6 2c40
00000250: 0917 033c 289f 133e 5c22 c4be 30b7 003e
00000260: 9d4e f7bf 491d 543e e774 923e bc5c b6bf
00000270: 5f60 d5c0 d714 8cbe b9ea 94bf 12f6 7ebe
00000280: 25b3 cfbe b586 853f a0ae 243f 9913 93bf
00000290: 4832 393c 50b1 39be 730b 2ac1 87a9 5f3e
000002a0: ea66 c0c0 aaef 95bf 4f34 b73d ba3d 03be
000002b0: a444 57c1 538d ddbd 10b6 abbc d8df 5abe
000002c0: edfd 80bf 0e12 aabe f7b2 563e 6b32 0dbd
000002d0: 1ff2 f3bd 7c05 a83e 06a7 763e ed8c d7be
000002e0: 55d6 52be 9ab9 babd b613 58c1 b8c0 b7bd
000002f0: 5aa7 79be 3d3a 92c0 a944 7b3e 19c0 003f
00000300: 91c7 33bd 502f 35be 9e6d f6be 69f2 4c3e
00000310: eb30 08bc 5c68 0fbf 9a99 7cbe 21d7 d83d
00000320: faf9 cb3c 8a72 2c3d 3f2d 2dbd 9989 32bd
00000330: 0d23 50be 06f1 05be 3d38 75be 3ba3 0abe
00000340: dff3 29be ec13 6fbe 0121 8fbe b024 60ba
00000350: 6b87 dbbc 7971 613d 2ad3 873d 0828 d33d
00000360: 64fb 01bf 9d0e 37be 38a4 4abc bdb1 7bbd
00000370: e887 98be 624a b03d 6325 edbe c425 50be
00000380: 66d0 67be a28d a6be 9621 60be 2c6f 86be
00000390: 0842 87be b581 8d3d 7680 5dbe 6c4c 37be
000003a0: 6b4a cbbd 19e6 06be a722 a8be beb5 4f3d
000003b0: 7382 25be b373 a9bd ce27 86be 2eea 3fbc
000003c0: d57a f7be 8fb5 3b3e 6310 353d bf4d aa3d
000003d0: 629b 5c3e e462 57bd 21d8 82ba d744 1f3e
000003e0: 8a51 a3bc 0e8a 3abe 59d6 8abd 4856 9fbc
000003f0: 596a f23c 3522 79be bca3 023e 6623 d4be

edm.weight f4 [1, 64]
-0.063374795 0.23630238 -0.0004929714 0.3647391 0.0038071321 0.26715016 0.659268 -0.9736425
-0.011319247 -0.03488255 -0.07733163 0.030502662 0.18140559 0.09465908 0.4214326 -0.3217179
0.013983268 0.12028343 0.03873341 0.52096295 0.17644607 0.009909731 0.7424554 -0.16292113
-0.027964633 -0.090468176 -0.32773593 -0.32359743 -0.3101862 0.1775245 0.32512888 -1.2798299
-0.07502285 -0.30789098 0.4084368 0.4743764 0.34051135 -0.19620042 1.3041209 -0.19850157
-0.36680233 0.42866704 -0.10572823 -0.220528 0.3981942 0.08575246 -0.1789221 0.735472
-0.14274538 -0.033533126 -0.100568675 -0.34398636 0.040012587 0.18771185 0.048123233 0.30350322
0.19495745 -0.71897495 -0.04284618 0.20047724 -0.19031185 -0.21559712 0.46077952 -0.37131023
00000000: a5ca 81bd 40f9 713e c03a 01ba 15bf ba3e
00000010: 1481 793b e8c7 883e cac5 283f a340 79bf
00000020: 5d74 39bc 01e1 0ebd 0c60 9ebd b8e0 f93c
00000030: 63c2 393e 9fdc c13d 04c6 d73e 35b8 a4be
00000040: 141a 653c 2957 f63d eda6 1e3d d45d 053f
00000050: 47ae 343e 6d5c 223c 8f11 3e3f ccd4 26be
00000060: 1616 e5bc 6147 b9bd 01cd a7be 90ae a5be
00000070: bad0 9ebe fcc8 353e 4b77 a63e 77d1 a3bf
00000080: 94a5 99bd e3a3 9dbe a11e d13e 77e1 f23e
00000090: 8157 ae3e c3e8 48be 6fed a63f ff43 4bbe
000000a0: 84cd bbbe 3f7a db3e 0b88 d8bd 18d2 61be
000000b0: 1ce0 cb3e fc9e af3d 5b37 37be e547 3c3f
000000c0: d82b 12be 085a 09bd f3f6 cdbd fb1e b0be
000000d0: 3de4 233d 8937 403e de1c 453d c664 9b3e
000000e0: eda2 473e be0e 38bf 7a7f 2fbd e849 4d3e
000000f0: 1ce1 42be 7ec5 5cbe 4beb eb3e 601c bebe

eaa.weight f4 [1, 64]
0.052713867 -0.13704945 1.3957987 0.42023426 -0.032448787 -0.049012028 -0.52406424 -1.824755
0.3012977 -0.019281192 0.026263248 -0.17769217 -0.05868261 -0.11851464 0.19837868 0.21982116
0.037082 0.7025216 -0.070957094 0.059669975 -0.14397931 0.99242574 -0.07026441 0.19147713
-0.013096946 -0.01915692 0.28135288 0.23552056 0.056157645 -0.24338737 0.035592675 -1.4280099
1.3073508 0.21714312 -0.22996901 -0.29273963 -0.28323555 0.19588752 -4.1270733 -0.12411079
0.27664387 0.28078994 0.24228433 0.314619 -0.22161004 0.2602393 -2.7224448 -0.15734695
0.24324487 0.77713376 -0.006553445 -0.18540065 0.050408367 0.13329299 1.7772793 -0.09840143
-0.055410672 0.14702715 -0.07109665 -0.22185877 -0.13219896 -0.09433946 0.2815331 -0.076024
00000000: 7fea 573d b156 0cbe 88a9 b23f f228 d73e
00000010: 05e9 04bd d6c0 48bd 1329 06bf 9291 e9bf
00000020: b143 9a3e 97f3 9dbc 0626 d73c f0f4 35be
00000030: 2d5d 70bd ceb7 f2bd c823 4b3e cc18 613e
00000040: 4ce3 173d 75d8 333f f451 91bd 8168 743d
00000050: 506f 13be 9d0f 7e3f c9e6 8fbd 9512 443e
00000060: 9394 56bc f9ee 9cbc 7c0d 903e 4d2c 713e
00000070: 8f05 663d 8a3a 79be a0c9 113d 07c9 b6bf
00000080: 4557 a73f c45a 5e3e ff7c 6bbe f8e1 95be
00000090: 4004 91be bd96 483e fc10 84c0 cc2d febd
000000a0: 44a4 8d3e b3c3 8f3e 6219 783e be15 a13e
000000b0: beed 62be 163e 853e 893c 2ec0 8f1f 21be
000000c0: 2f15 793e 3df2 463f 48be d6bb abd9 3dbe
000000d0: 0179 4e3d f57d 083e e37d e33f b086 c9bd
000000e0: 4df6 62bd 498e 163e 1f9b 91bd f22e 63be
000000f0: 2a5f 07be 0c35 c1bd 1b25 903e 79b2 9bbd

rm.weight f4 [1, 64]
0.11260755 -0.23745628 0.08335246 -0.04184061 -0.009695617 -0.11455211 0.5589145 -0.539866
0.32824746 0.0045830724 -0.046819042 0.46262172 -0.81998855 0.61648536 0.20423883 0.19238792
0.13368241 0.3381777 -0.34865353 -0.2660007 0.23764858 0.060725957 2.007004 0.49716392
-0.0338752 0.046880737 -1.0095843 0.43995234 -0.059483908 -0.42555603 -0.3134804 -0.54758865
-0.08940285 0.32501996 -0.34134874 -0.02530424 -0.011333568 0.4341571 -0.07733677 0.19331354
-0.36575922 -0.35218903 0.18597792 0.33061147 -0.23938587 0.03252892 0.47928572 -0.06419964
-0.43729544 -0.10918598 -0.2582111 -0.1719367 0.043888796 -0.16100723 0.33447275 -0.080414906
0.016026478 -0.0072390256 -0.31149247 0.3291554 0.38072106 -0.02942935 0.3448024 -1.6378253
00000000: ca9e e63d bd27 73be b2b4 aa3d 0f61 2bbd
00000010: 5dda 1ebc 4c9a eabd 0515 0f3f a834 0abf
00000020: 0d10 a83e 992d 963b 53c5 3fbd c1dc ec3e
00000030: c5ea 51bf fcd1 1d3f fc23 513e 5701 453e
00000040: 0be4 083e a125 ad3e b782 b2be 3e31 88be
00000050: 265a 733e c8bb 783d c172 0040 458c fe3e
00000060: b9c0 0abd 0406 403d 0f3a 81bf 6f41 e13e
00000070: 66a5 73bd 7be2 d9be 8180 a0be c52e 0cbf
00000080: d718 b7bd 0469 a63e 43c5 aebe d64a cfbc
00000090: 6eb0 39bc d749 de3e be62 9ebd fcf3 453e
000000a0: cb44 bbbe 1f52 b4be ff70 3e3e e845 a93e
000000b0: 9221 75be 0b3d 053d f064 f53e 1a7b 83bd
000000c0: 30e5 dfbe e69c dfbd 3f34 84be 2d10 30be
000000d0: bdc4 333d 14df 24be 0340 ab3e 92b0 a4bd
000000e0: f649 833c 5935 edbb f17b 9fbe 0e87 a83e
000000f0: dfed c23e d215 f1bc f189 b03e 42a4 d1bf
