Models/model_gnn_regression.pth (torch, 39682 bytes, 9 tensors)

conv1.bias f4 [64]
00000000: 0000 0000 0000 0000 0000 0000 0000 0000
00000010: 0000 0000 0000 0000 0000 0000 0000 0000
00000020: 0000 0000 0000 0000 0000 0000 0000 0000
00000030: 0000 0000 0000 0000 0000 0000 0000 0000
00000040: 0000 0000 0000 0000 0000 0000 0000 0000
00000050: 0000 0000 0000 0000 0000 0000 0000 0000
00000060: 0000 0000 0000 0000 0000 0000 0000 0000
00000070: 0000 0000 0000 0000 0000 0000 0000 0000
00000080: 0000 0000 0000 0000 0000 0000 0000 0000
00000090: 0000 0000 0000 0000 0000 0000 0000 0000
000000a0: 0000 0000 0000 0000 0000 0000 0000 0000
000000b0: 0000 0000 0000 0000 0000 0000 0000 0000
000000c0: 0000 0000 0000 0000 0000 0000 0000 0000
000000d0: 0000 0000 0000 0000 0000 0000 0000 0000
000000e0: 0000 0000 0000 0000 0000 0000 0000 0000
000000f0: 0000 0000 0000 0000 0000 0000 0000 0000
0.0 0.0 0.0 0.0 0.0 0.0 0.0 0.0
0.0 0.0 0.0 0.0 0.0 0.0 0.0 0.0
0.0 0.0 0.0 0.0 0.0 0.0 0.0 0.0
0.0 0.0 0.0 0.0 0.0 0.0 0.0 0.0
0.0 0.0 0.0 0.0 0.0 0.0 0.0 0.0
0.0 0.0 0.0 0.0 0.0 0.0 0.0 0.0
0.0 0.0 0.0 0.0 0.0 0.0 0.0 0.0
0.0 0.0 0.0 0.0 0.0 0.0 0.0 0.0

conv1.lin.weight f4 [64, 3]
00000000: c988 9d3d 7f7e 70be 3058 0bbe 22c4 3ebe
00000010: 370c 173d 4224 75be 9cb0 b93b af1d ac3b
00000020: c672 84be ef0f 80be 5e45 693e 7fdf b7bd
00000030: f31a 2abe a643 82bd b609 683e 8709 6abe
00000040: 93d5 603e 3c10 8fbe 254b 63be b7fd 06bb
00000050: 4f04 963e 423f 603e 6a7e 24be 0930 5d3e
00000060: d880 553e b812 15be a1f6 7ebc e128 ccbc
00000070: 534a 213e 48f0 8dbe 196a 1abc 9afb 613e
00000080: 45ea 59be 871e 463d b9c3 7bbc 76a9 d8bd
00000090: 28d7 0cbe 62fd 91be 5f39 51be ba89 bbbc
000000a0: dc48 f9bd c7a0 833e 6a3e 593e 0b22 60be
000000b0: 5bfc 12be 1594 903e 9276 5a3e 7fed b1bd
000000c0: ce0d 54bd c769 833c 594a 17bc 4841 3cbe
000000d0: 806f ccbd 5d4c 7fbc 6b2e 773e b794 773e
000000e0: cc48 aebd db66 7dbe d598 3e3e 469c c3bd
000000f0: c66b 833e 41b3 993b 0212 71bc 8c0d 57be
00000100: 2e00 8b3e 959d 363e 3da1 6a3e 816d 5c3b
00000110: b7ca 293e 503e 663e f894 29be a726 253e
00000120: 619c 4d3e aac0 9ebd dd30 a4bd af3e 1d3e
00000130: 3bef 6a3d 37e9 dbbd 0a98 bdbc ec23 3f3e
00000140: 8f80 263d f016 0f3c 4a22 883d ba83 0fbe
00000150: 88ab babd a118 3b3e 2319 383d 0594 543d
00000160: e8ec 613e c99a 9cbd 9320 043e 20e2 4ebe
00000170: 3fb2 4dbd c20b 74bd c6c9 9e3d 4439 353e
00000180: 6c31 b73d 7458 a2bd 1039 943e 018a 8e3e
00000190: f497 823e c774 9fbc f69a 7cbe 652f ac3d
000001a0: fb66 463d 093a f83b 1254 313e 04a0 913d
000001b0: 9cfb 4ebe 44bc 50bd 35e7 2fbe e64c 1ebe
000001c0: e609 7bbe 8d79 283e a5bd 983d 0291 03be
000001d0: 8914 2abd c974 1ebe a088 d03d e861 6fbe
000001e0: 91be d73d 7037 2bbe 7276 21bd 01f8 033e
000001f0: 383f 84bc e24e 0bbe 08ca 8dbe 48f8 0cbd
00000200: 8c71 ff3d a28c 83be 7cf3 aebd 353f 84be
00000210: 7d0f 46bd dcee f8bc 75b9 70be 494b 49be
00000220: 43d2 043e 378d 433d cf74 093e cc6d 033e
00000230: 3422 fb3d a700 953e e2d3 1fbe 8227 703d
00000240: 53a7 703d e37d 0cbd c5d1 063e d252 863d
00000250: 66ad 7f3d d7ba 2cbe 0bb4 7e3d 135c 033e
00000260: d13f 7abd 2703 723e 0245 53bc 3943 41be
00000270: 8aee 8abe 4b0a 85be 44d8 84bd 84e0 04bc
00000280: 8917 80be 37a9 503e 9b0c 1e3e 1d4b 1fbe
00000290: 892d 8cbd 0652 0bbe edb1 74be 424d 55bb
000002a0: 9a4f 933e fb0b 7bbd 10f3 2d3e e58b 93bd
000002b0: 6407 18be 8c82 bd3d b80e 52bd 23f0 7cbe
000002c0: dcdd 123e 966d 92bd 1dac dbbd c838 77be
000002d0: f83f 69bd 3e0a 8cbe 1fd3 51be 41bb 7e3e
000002e0: afdb 863e b541 91be ae4f 543e 6c04 0fbd
000002f0: 8522 4cbd e53c 353e ff63 223e b109 54be
0.07692105 -0.23485754 -0.1360786 -0.18629506 0.036876883 -0.23939613 0.0056668054 0.005252562
-0.25868815 -0.25012156 0.22780368 -0.08978175 -0.16611843 -0.06360559 0.22659954 -0.22855197
0.21956472 -0.27942073 -0.22196634 -0.0020598003 0.29300162 0.21899131 -0.16063848 0.21600355
0.20849931 -0.14557922 -0.015561731 -0.024921836 0.15751009 -0.27722383 -0.00942471 0.22068635
-0.21280773 0.048368957 -0.015366488 -0.10579197 -0.1375395 -0.28513628 -0.20432042 -0.022892822
-0.121721 0.257086 0.21215215 -0.21887986 -0.14354078 0.28237978 0.21334293 -0.08687877
-0.051770978 0.01604165 -0.009234034 -0.18384278 -0.099822044 -0.015582171 0.24138801 0.24177824
-0.08509979 -0.24746267 0.18612988 -0.09551291 0.25668162 0.004690558 -0.014713766 -0.21001261
0.27148575 0.1783355 0.2291307 0.0033634605 0.16581236 0.22484708 -0.16560733 0.16128026
0.20079185 -0.077515915 -0.080171324 0.15355943 0.057357054 -0.107378416 -0.023143787 0.18666047
0.040649947 0.008733496 0.06647165 -0.14015093 -0.09114748 0.18271114 0.044945847 0.051898975
0.22063029 -0.076467104 0.12903051 -0.20203447 -0.050218817 -0.059581526 0.07753329 0.17697626
0.08944973 -0.07927027 0.28949785 0.27839664 0.25506556 -0.019464863 -0.24668488 0.08407477
0.048438054 0.0075752777 0.17317227 0.07110599 -0.20213169 -0.050960794 -0.17178042 -0.15459022
-0.24515495 0.16452618 0.07458047 -0.12848285 -0.04152349 -0.15474238 0.10182309 -0.23377192
0.105343945 -0.16720366 -0.0394196 0.12887575 -0.016143426 -0.1360431 -0.276932 -0.034416467
0.12472829 -0.25693232 -0.08542535 -0.25829473 -0.048354615 -0.030387335 -0.23508246 -0.19657625
0.12970833 0.047742095 0.13423465 0.12834853 0.12262383 0.2910206 -0.1560817 0.058631428
0.058753323 -0.034299742 0.13165958 0.065587655 0.062421225 -0.16868149 0.06218342 0.12828092
-0.061096016 0.23634015 -0.012894871 -0.188733 -0.27135116 -0.25984415 -0.06486562 -0.008110169
-0.25017956 0.2037705 0.15434496 -0.15555997 -0.06844623 -0.13605508 -0.23895998 -0.003254727
0.2877167 -0.061290722 0.16987252 -0.07204417 -0.1484657 0.092534155 -0.05128357 -0.2470098
0.14342445 -0.07149808 -0.107261874 -0.24142754 -0.05694577 -0.27351564 -0.20490693 0.24876119
0.2633948 -0.28370443 0.2073352 -0.034916326 -0.049837608 0.1769901 0.15858458 -0.20706822

conv2.bias f4 [64]
00000000: 0000 0000 0000 0000 0000 0000 0000 0000
00000010: 0000 0000 0000 0000 0000 0000 0000 0000
00000020: 0000 0000 0000 0000 0000 0000 0000 0000
00000030: 0000 0000 0000 0000 0000 0000 0000 0000
00000040: 0000 0000 0000 0000 0000 0000 0000 0000
00000050: 0000 0000 0000 0000 0000 0000 0000 0000
00000060: 0000 0000 0000 0000 0000 0000 0000 0000
00000070: 0000 0000 0000 0000 0000 0000 0000 0000
00000080: 0000 0000 0000 0000 0000 0000 0000 0000
00000090: 0000 0000 0000 0000 0000 0000 0000 0000
000000a0: 0000 0000 0000 0000 0000 0000 0000 0000
000000b0: 0000 0000 0000 0000 0000 0000 0000 0000
000000c0: 0000 0000 0000 0000 0000 0000 0000 0000
000000d0: 0000 0000 0000 0000 0000 0000 0000 0000
000000e0: 0000 0000 0000 0000 0000 0000 0000 0000
000000f0: 0000 0000 0000 0000 0000 0000 0000 0000
0.0 0.0 0.0 0.0 0.0 0.0 0.0 0.0
0.0 0.0 0.0 0.0 0.0 0.0 0.0 0.0
0.0 0.0 0.0 0.0 0.0 0.0 0.0 0.0
0.0 0.0 0.0 0.0 0.0 0.0 0.0 0.0
0.0 0.0 0.0 0.0 0.0 0.0 0.0 0.0
0.0 0.0 0.0 0.0 0.0 0.0 0.0 0.0
0.0 0.0 0.0 0.0 0.0 0.0 0.0 0.0
0.0 0.0 0.0 0.0 0.0 0.0 0.0 0.0

conv2.lin.weight f4 [64, 64]
00000000: 9916 30be 505f a2bd e5cc 3fbe 6b0c b7bc
00000010: 305d 1e3e 2213 09be c719 893d e36b 5cbe
00000020: 3270 a7bc e533 57be a9c7 523e 02b9 51be
00000030: c9cb 47bc 47f9 5c3e e7e6 2dba a680 073b
00000040: 7b8e d0bd 3a8b 113d d9ae 503e aaca 343e
00000050: dbf7 703d f665 113e 05d2 38be afc9 4abe
00000060: 73ac 45be 00c8 593e 14a1 3a3d a455 a8bc
00000070: d727 33bd 8465 49be 0dd7 343e c91a b93d
00000080: 69b2 033e 50f2 52bd c9fa 4d3e 0705 303e
00000090: 2073 3bbe 9495 f3bd 5a00 19be 4c1f dc3c
000000a0: bddc 66bd c64b 5e3d 2a0d f3bc 9a93 b03d
000000b0: eec8 27be df87 e13d 1494 0b3e b1b5 2ebe
000000c0: a53f 173d 3ea2 2dbe 137b 8fbd e84f 14be
000000d0: 01bf 4f3e 73d0 633d b3d0 573e f2a2 283e
000000e0: 326d 32be a023 47be c048 21be 1646 5b3d
000000f0: 3de9 37be 9c5b ecbd c9ba c1bd b84e ff3d
00000100: 2b10 81bb ccf0 04bd 3f2c 35be 0665 90bd
00000110: b27a d83d 04e4 903d 60bf a03d b68e 163e
00000120: 6a54 dd3d 34c3 49be 335b 93bc e498 babd
00000130: 1c8e 19be ec6d e23d 0a31 40be 75f6 ddbd
00000140: 477b 313e df21 5fbd 23bd cbbc 0c6a dfbb
00000150: 85db 7dbc d0bc 9abc f527 66bd 3605 48be
00000160: 3462 f4bd 4de0 223e 61fe 533e 465f 42be
00000170: 2f80 423d 82a4 05be 1774 87bc 21a9 eb3d
00000180: 409b e43d 24a5 523e 00c6 d3bc f15f a93c
00000190: 1dd1 433e 9c67 3abe 9434 3dbe d30a b8bd
000001a0: e267 b83d 9857 3fbe ebd9 123d 666c 0e3e
000001b0: 6130 21bc 0f0a 4b3d 7d37 523e cf88 cbbd
000001c0: f54c 453d c4f8 893d 44c1 123c c8c4 da3c
000001d0: 8b3f cabc 0226 20be e482 d43d 8ebf a13d
000001e0: 9a83 41bd 9e06 04be 4a7d c2bd 914f b3bd
000001f0: c634 26bd 6060 673d 1247 073e b1a3 73bd
00000200: 432c 523e ced4 473e 6f05 5b3d 333d 0bbe
00000210: 265f 80bd ce51 b4bc 13ec 15be 618e 5d3e
00000220: 95be c53d dd2b 7fbd e779 593e 2cec 0d3d
00000230: e8f5 663d f244 d23d cc68 3cbd 54df 1cbb
00000240: 97c8 31be e21f 033e 9bb6 fd3b 4b73 3ebe
00000250: 4b22 543e e240 e13d 4431 3f3d a875 9bbc
00000260: 5ecf 33be 274a bdbd a798 18be 3b9d c13c
00000270: 5e0c d73b cf4b 433e a9ec 233e 0822 013c
00000280: 7115 9abd 0f93 593e 246f 153e 70f3 be3d
00000290: bcea 87bc 37b1 1c3c b090 583e 17e9 b4bb
000002a0: 86d3 4cbe 5a18 223e f833 9a3d ef53 423d
000002b0: 322a da3b e58f 45be e3ad 16be ec10 223e
000002c0: 901c 593e 29f9 d2bd 3a6a 3ebe 5644 aebd
000002d0: 425f db3c 71fe 5c3e e3c4 7e3d 4e2e 3d3b
000002e0: 7d1d dfbd 1ae7 fd3b c0a1 34be 5da3 36be
000002f0: b717 a2bd ace2 28be 6ab5 453e 2c18 36bd
00000300: e02c 0f3d 85df 3f3e c68c 9f3d 7f4f b53a
00000310: 9df8 513e 431d cbbd 444d f13c 4358 49bd
00000320: 6cd6 3d3e 55fa 4b3e 6e50 a8bd 2c17 c1bd
00000330: 74bd 1f3e 6304 5a3d 5eac a1bd ad07 82bd
00000340: cb2a 123d a63a 4d3e 1c6a e03d 9307 c7bd
00000350: f5c2 d83d 01c6 3c3d 03e9 9bbd f609 29bd
00000360: a036 8ebb a9f4 f03d 207d 1c3e 204b 053e
00000370: 7ac7 1abe bb24 5dbd e1bc 1f3e 15c7 d0bd
00000380: d561 293e c133 493d 349d 16be 8500 603c
00000390: 2825 813d 99d5 f63d 8396 c2bd 14f2 483e
000003a0: c8b2 2abe b2bc 73bd 1a80 c7bd 595d 92bc
000003b0: 1ab2 93bd f200 09bd a76e d03d aab2 bebc
000003c0: c794 50be 2573 b1bd 1e21 dd3d 5ef4 3a3e
000003d0: 2fb1 b8bd 64b9 2c3d 5180 01be c0ef 783d
000003e0: ee10 e23d f758 37be f6be c33d be1e 39be
000003f0: 50b5 4d3e 4d0d fb3d 9c86 093e 8070 de3d
-0.1719612 -0.07928336 -0.18730505 -0.022344789 0.15465236 -0.13386205 0.0669437 -0.2152553
-0.020439241 -0.2101589 0.20583977 -0.20480731 -0.012194582 0.21579467 -0.00066338334 0.0020676046
-0.10183426 0.035533167 0.20379199 0.17655435 0.058830123 0.14199051 -0.18048866 -0.19803499
-0.19304065 0.212677 0.045563772 -0.02054865 -0.043739166 -0.19667631 0.1766016 0.09038312
0.12861027 -0.05150062 0.20115198 0.17189418 -0.18305635 -0.11893764 -0.1494154 0.026870392
-0.056362856 0.054271482 -0.029669363 0.08621903 -0.16385242 0.110122435 0.13630706 -0.17061497
0.03692593 -0.16956422 -0.070058964 -0.14483607 0.20287706 0.055618715 0.21075706 0.16468409
-0.17424467 -0.19447184 -0.15750408 0.053533636 -0.17960067 -0.115409106 -0.094594546 0.12466186
-0.003938695 -0.032456204 -0.1769266 -0.07050519 0.10570277 0.070747405 0.07849002 0.14702877
0.10807116 -0.1970337 -0.017987823 -0.09111193 -0.14995617 0.11056122 -0.18768707 -0.108380236
0.17332183 -0.05447566 -0.02487046 -0.0068180617 -0.015494232 -0.018888861 -0.05619045 -0.19533238
-0.11932793 0.15905876 0.20702507 -0.18981656 0.047485527 -0.13051036 -0.016534848 0.11506868
0.11162424 0.20570809 -0.02585125 0.020675631 0.19122739 -0.18203586 -0.18477088 -0.089864396
0.09004189 -0.18685758 0.035852354 0.13908538 -0.009838195 0.04957014 0.2052898 -0.099382035
0.048169095 0.067369014 0.008957211 0.02670516 -0.024688503 -0.15639499 0.10376528 0.07897864
-0.047244646 -0.1289315 -0.09496553 -0.087554105 -0.040577672 0.056488395 0.13210705 -0.05948228
0.20524697 0.19514772 0.05347198 -0.13597564 -0.06268148 -0.022011664 -0.14640836 0.21636344
0.09655491 -0.06229769 0.21237908 0.03464906 0.05638686 0.102670565 -0.04599838 -0.0023936825
-0.17361675 0.12805131 0.0077427155 -0.18598668 0.20716207 0.109987035 0.046677843 -0.018977001
-0.17559573 -0.09242659 -0.14901982 0.023634544 0.0065627536 0.19071887 0.16008247 0.007881649
-0.07523621 0.21247505 0.14593178 0.09323776 -0.016591422 0.009563736 0.21148944 -0.0055209505
-0.20002565 0.15829602 0.075294435 0.047443327 0.006657862 -0.19293173 -0.1471477 0.15826768
0.21202302 -0.1030143 -0.1859521 -0.08509128 0.02677882 0.21581437 0.062199485 0.002886671
-0.10894296 0.0077484967 -0.17639828 -0.17835756 -0.079146795 -0.16492718 0.19307485 -0.044456646
0.034954906 0.1873761 0.07790522 0.0013832896 0.20504995 -0.099176906 0.029455788 -0.04915644
0.18538827 0.19919713 -0.08218466 -0.09428248 0.15599614 0.05322684 -0.078942046 -0.0634912
0.03568534 0.20041904 0.10957739 -0.097182415 0.1058406 0.04608727 -0.07612803 -0.041269265
-0.004340008 0.11765415 0.15282106 0.13016939 -0.15115157 -0.053990107 0.15599395 -0.10194222
0.16541226 0.049121622 -0.14708406 0.013671999 0.06305915 0.12052459 -0.09501364 0.19623595
-0.16669762 -0.059506126 -0.0974123 -0.017866777 -0.072117046 -0.033448167 0.10177355 -0.023278553
-0.20369254 -0.0866454 0.10797332 0.18257281 -0.0901817 0.04216899 -0.12646605 0.06077552
0.11038385 -0.17905031 0.09557907 -0.18078133 0.20088696 0.12258396 0.13430256 0.108613014

conv3.bias f4 [64]
00000000: 0000 0000 0000 0000 0000 0000 0000 0000
00000010: 0000 0000 0000 0000 0000 0000 0000 0000
00000020: 0000 0000 0000 0000 0000 0000 0000 0000
00000030: 0000 0000 0000 0000 0000 0000 0000 0000
00000040: 0000 0000 0000 0000 0000 0000 0000 0000
00000050: 0000 0000 0000 0000 0000 0000 0000 0000
00000060: 0000 0000 0000 0000 0000 0000 0000 0000
00000070: 0000 0000 0000 0000 0000 0000 0000 0000
00000080: 0000 0000 0000 0000 0000 0000 0000 0000
00000090: 0000 0000 0000 0000 0000 0000 0000 0000
000000a0: 0000 0000 0000 0000 0000 0000 0000 0000
000000b0: 0000 0000 0000 0000 0000 0000 0000 0000
000000c0: 0000 0000 0000 0000 0000 0000 0000 0000
000000d0: 0000 0000 0000 0000 0000 0000 0000 0000
000000e0: 0000 0000 0000 0000 0000 0000 0000 0000
000000f0: 0000 0000 0000 0000 0000 0000 0000 0000
0.0 0.0 0.0 0.0 0.0 0.0 0.0 0.0
0.0 0.0 0.0 0.0 0.0 0.0 0.0 0.0
0.0 0.0 0.0 0.0 0.0 0.0 0.0 0.0
0.0 0.0 0.0 0.0 0.0 0.0 0.0 0.0
0.0 0.0 0.0 0.0 0.0 0.0 0.0 0.0
0.0 0.0 0.0 0.0 0.0 0.0 0.0 0.0
0.0 0.0 0.0 0.0 0.0 0.0 0.0 0.0
0.0 0.0 0.0 0.0 0.0 0.0 0.0 0.0

conv3.lin.weight f4 [64, 64]
00000000: 2ba3 29bd e234 b3bd d2d9 11bb 1f04 51be
00000010: d514 33be 5733 1abe cde4 483e 209c 0abe
00000020: 4b9a 153d 0adf 21be 3ad0 1dbe ff2c bb3d
00000030: a006 fd3d 5089 803d 9430 b83d d527 363e
00000040: 83dd 543e cbf8 893c aaf0 2e3c b6fd c13d
00000050: 407e 4b3e 5439 dbbd 7ccc 033d 50fd 26bd
00000060: 0509 18bd 0014 23bd 27a2 403e 95ca 0cbe
00000070: 412f 4abe 1aab 14be 7506 103e 51c3 19bd
00000080: 8275 00be 9fb9 e8bd db33 2dbe 29e2 35be
00000090: 41fc 173e 80a4 8ebc b386 1b3e 3115 0cbe
000000a0: 4204 aa3d f795 383e 6f9e 353e 678d c2bd
000000b0: 1a8c d63d d861 28be a478 9f3d f818 02be
000000c0: 0cf1 48be 3ba8 05bd b1d6 2c3e fbd8 19be
000000d0: da0b 1cbe a3d9 ff3d 255c b93d eed9 943d
000000e0: f596 2dbe 7ac2 123e 95de 26be 2023 593e
000000f0: 2dc8 dfbc 3a7a eb3d f551 523e 8c70 cbbd
00000100: 98b4 573e 370d 0b3e 7dd1 17bc 169e cc3d
00000110: a87c 99bc 50b6 f6bc ef0c 583e 4c27 323e
00000120: e0d0 5b3e 16ca 31be 82fa 9bbd d45e c73d
00000130: b46f 3cbe 59ff a4bd 5b4a 35bd 76f1 febc
00000140: 8021 0f3e 5c54 ec3d 4a33 0fbd 6d4f 4ebc
00000150: 807d 493d ab2b 873d 82db de3d a449 d7bc
00000160: 7e8e acbd 845a c8bc 29c5 dd3b 490c 64bd
00000170: a573 e23d 4482 73bd 46a3 02be e2ec 06bc
00000180: 5262 7b3d 7fb5 703d a642 53be 00c0 45bd
00000190: d526 b73d 9f53 d63d 4b50 f3bd f121 0fbd
000001a0: d259 06bd 6498 25be a220 06be d202 053b
000001b0: e69f 453e 51c3 1ebe 4e2c 0cbc 47dd afbd
000001c0: 3ad3 bd3d 55e7 c4bc 86ca 32bd b787 09be
000001d0: 57c0 a63d 072c 213e d5e8 d33d 901e b73d
000001e0: a57f 2c3e 0edf 81bd dfb9 91bd dd81 84bd
000001f0: d5a0 10be c523 43be b97d 693c 7f06 53be
00000200: 6809 a1bb afc6 533e e25e 09bd f906 023e
00000210: f75c 4dbd 2cda d73d ac21 923d 6bd4 3ebe
00000220: 8df9 87bd 1a41 04bd 56b5 f8bd 6774 1dbe
00000230: e9d0 ccbc 5d3d a5bd ea88 f1bd be4e ca3d
00000240: 8c23 11bd 593d 3b3e 2301 4a3d cf43 b83d
00000250: eeba 17be 7e3e aebd 66a5 493e 4292 22bc
00000260: a4bc 433e b1c4 f8bb 5e2f 80bd 8103 9bbc
00000270: 8e40 f03d 8ff0 ce3d 6c06 a23d 81ad abbd
00000280: ff9e 4bbe 2b1d 0d3e 7571 3cbd 320b 47be
00000290: 7840 3abe 5dbc 3e3e e6e6 debc b7ae 27bd
000002a0: 0b48 dcbd 2195 593c 8e4c ffbc ec0a f1bd
000002b0: 835f ef3d 28bc 663d 82b4 443d cc66 4cbe
000002c0: d9f5 cbbd 5f97 1a3e 984c 1f3c 0afe 073e
000002d0: dc34 53bd 7905 77bd 6689 05be b3b8 80bd
000002e0: a08e 91bd a705 1d3d fe19 1abe 352a 403e
000002f0: 9897 8cbd 9330 b73d df52 373e dd97 42be
00000300: 8129 1d3e 0686 223c 50ec 40be edf7 91bd
00000310: 6abf cebc a6b8 1cbe 4960 0b3e 6d71 053e
00000320: 2e09 46bd 1d19 fbbd a71b 083e 84a2 cabd
00000330: ea3e 543e 3500 0a3c 1a1e 7a3d fac2 00be
00000340: e65a 26be 9264 4dbd 44f0 5e3d 54bb f8bd
00000350: 9467 c6bc 8f20 03be 76b5 063e 6a46 9dbd
00000360: 553e f7bd dad2 38be 44f1 c73d 0ccf 0e3c
00000370: b71e 843d d239 493e c837 253e 8023 a23d
00000380: 6353 e03d 4d08 3d3e 2257 323e 3891 783d
00000390: 33bf 8b3d f7c1 943d 3e2b 4cbe 0c08 983a
000003a0: bd9a cbbd f54c 0bbe 74bd a03d 23bf ecbd
000003b0: 6d62 37be 679b ea3c 1cd0 4abe d331 153e
000003c0: 6721 3c3a 73d1 57be 990f 49bd a934 8bbd
000003d0: fd02 ca3d c1b4 203e 3f99 2fbe effc b3bd
000003e0: f674 ac3d 91aa 4a3e 12c3 e1bb 09a5 4cbe
000003f0: 459e d03c 4ef1 55be 3ad5 b43d beac 47bd
-0.041415375 -0.08750321 -0.0022255075 -0.20411728 -0.17488416 -0.15058647 0.1961853 -0.1353612
0.0365241 -0.15807739 -0.15411463 0.09139442 0.12354779 0.0627619 0.089936405 0.17788632
0.20787625 0.016842267 0.010677496 0.0947222 0.1987238 -0.10704294 0.032177433 -0.04076892
-0.037117977 -0.039813995 0.18811856 -0.13749154 -0.19744588 -0.14518395 0.14064963 -0.037539784
-0.12544826 -0.113635294 -0.16914313 -0.17762055 0.14842321 -0.017412424 0.15188102 -0.13679959
0.08301593 0.18025957 0.17736219 -0.094996266 0.10475941 -0.16443574 0.07786682 -0.12704837
-0.19623202 -0.03263114 0.16878773 -0.15024178 -0.15238896 0.12492683 0.09050778 0.07268129
-0.16952117 0.14332 -0.16295846 0.21204805 -0.027317131 0.11497922 0.20539077 -0.09933576
0.21064985 0.1357926 -0.0092662545 0.0999109 -0.018736199 -0.03011623 0.21098684 0.17397803
0.21466398 -0.17362246 -0.0761614 0.09734884 -0.18401986 -0.08056516 -0.044260364 -0.031120997
0.13977623 0.11539528 -0.034961022 -0.012592179 0.04919195 0.06600126 0.108817115 -0.026280232
-0.08425616 -0.024457224 0.006767888 -0.05567578 0.11057214 -0.059450403 -0.12757596 -0.008235188
0.061373062 0.05876684 -0.20630893 -0.04827881 0.089429535 0.10465168 -0.11880549 -0.03494448
-0.032800503 -0.16171414 -0.13098386 0.002029587 0.19299278 -0.15504195 -0.008555485 -0.08587127
0.09268804 -0.024036089 -0.043650173 -0.13430677 0.08142155 0.15739451 0.103471436 0.08941376
0.16845568 -0.063413724 -0.0711553 -0.06470082 -0.14123853 -0.19056614 0.014251166 -0.20607947
-0.0049144514 0.2068126 -0.033537753 0.12697972 -0.050137486 0.1053966 0.07135329 -0.18635719
-0.06639395 -0.03228865 -0.12143962 -0.15376435 -0.02500196 -0.08068345 -0.117936924 0.098783
-0.03543429 0.18285121 0.04931749 0.089973085 -0.14817402 -0.08508013 0.19692001 -0.009922566
0.1911493 -0.007591807 -0.062590346 -0.01892257 0.11731063 0.10104477 0.07911381 -0.083827026
-0.19884871 0.13780658 -0.04600664 -0.19437864 -0.18188655 0.18626542 -0.02720971 -0.040938105
-0.107559286 0.013280184 -0.031164434 -0.11769661 0.11688139 0.056331784 0.04802371 -0.19961089
-0.09959001 0.15096806 0.009722851 0.13280502 -0.051564083 -0.060307954 -0.13040695 -0.062852286
-0.07107282 0.03833547 -0.15048978 0.187661 -0.06864852 0.08944812 0.17902707 -0.19003244
0.15347864 0.009919649 -0.18840146 -0.07127366 -0.025237758 -0.15304813 0.13610949 0.1303155
-0.0483486 -0.12260649 0.13291799 -0.09894279 0.20727125 0.008422901 0.061063863 -0.12574378
-0.16245613 -0.05014474 0.054428354 -0.12145105 -0.024219312 -0.12805389 0.1315516 -0.07679446
-0.12072436 -0.18049183 0.09762815 0.008716356 0.06451171 0.19650963 0.1613456 0.07916927
0.10953405 0.18460198 0.17416051 0.060685366 0.06823578 0.07263558 -0.1993837 0.0011599078
-0.09941623 -0.13603576 0.07848635 -0.11559894 -0.1790864 0.028638555 -0.1980595 0.14569788
0.0007176608 -0.21075992 -0.04908714 -0.067971535 0.09863851 0.15693952 -0.17148302 -0.08788478
0.08420746 0.19791628 -0.0068897093 -0.19984831 0.025466094 -0.20892832 0.08829732 -0.048748724

edm.weight f4 [1, 64]
00000000: 4011 78bc 1444 5a3d ec09 a3bd 56e9 f9bd
00000010: 3e18 b73d 80b7 d6bc 60f1 5abc 5a19 b03d
00000020: 3c88 5f3d a8fc 35bd 88c4 623d 6064 4d3c
00000030: 346b 253d 1c6e 7b3d 809e f9bb d80e 9bbd
00000040: f650 ae3d 405f 62bc 2cba 313d e0a3 8d3d
00000050: 1818 5fbd bcb1 43bd bce9 c5bd 00fa 4a3d
00000060: 5081 84bd 5236 d7bd e871 d2bc aa3e f73d
00000070: c065 df3c 00b1 f0bc 604a d23b 5cbd 14bd
00000080: 2806 d63c 4091 72bc 120e 843d c0bc 013d
00000090: f8a5 c9bc 4042 53bd 3272 cdbd b0d3 3bbd
000000a0: 06af ff3d 60e5 3bbc a014 8b3b f20d eb3d
000000b0: c879 963d 9428 f23d b2e1 c9bd fc16 5f3d
000000c0: a865 843d 343f ccbd 3ac4 ae3d fcc3 babd
000000d0: 10ca 03bd f4b1 a93d b48e 783d 58c3 f5bd
000000e0: 0874 6b3d b439 073d b482 e43d 8841 f43c
000000f0: c077 0b3b 6205 c9bd 8081 2fbb 5076 74bc
-0.0151408315 0.05328758 -0.07960877 -0.122027084 0.08940171 -0.026210546 -0.013363212 0.085985854
0.054573283 -0.044430405 0.055363208 0.012536138 0.04038544 0.061384305 -0.0076177716 -0.075711906
0.08511536 -0.013816655 0.043390438 0.06916022 -0.054466337 -0.047776923 -0.09663722 0.049554825
-0.06469977 -0.10508408 -0.02568908 0.12072499 0.027270198 -0.029381275 0.0064175576 -0.0363134
0.026125982 -0.014805138 0.06447996 0.031674147 -0.024615273 -0.051576853 -0.10031547 -0.045856178
0.12484555 -0.0114682615 0.004244402 0.11477269 0.07347447 0.11824146 -0.09857501 0.05446528
0.06464702 -0.099729925 0.08533521 -0.09119412 -0.032175124 0.08285895 0.060682967 -0.120001495
0.057483703 0.033014014 0.11157742 0.029816404 0.0021281093 -0.0981548 -0.002678007 -0.014920786

eaa.weight f4 [1, 64]
00000000: 0683 813d 94c3 f3bd 002c 4a39 e6a9 c13d
00000010: 6052 f03d 5888 59bd 2c1a 843d e080 abbd
00000020: c03d 39bc 5aed adbd 90a9 e83d 2abb a63d
00000030: c067 1c3b da46 a73d 6a81 b43d b04d a13d
00000040: b421 003d d240 e13d 5c34 6fbd 7072 d73d
00000050: f04a b7bd ec93 1fbd 3e2a d5bd e265 88bd
00000060: d84c bb3c 38bb 51bd c0b2 ef3b 008f 05ba
00000070: cc6b e73d ca69 eabd 4854 5ebd 88a1 8b3c
00000080: 1090 143d a849 cabd 5675 903d 6043 69bc
00000090: 18a2 ddbc f468 ddbd b8cb c3bd c01d cc3d
000000a0: 7471 b3bd 9039 ba3c 4897 7a3d 20a3 a73c
000000b0: a08e 9ebc 9029 a5bc 1218 fc3d e4a4 febd
000000c0: 80d4 d13d 1e85 ad3d 689f e5bc a83a 7f3d
000000d0: 361a ca3d 2cf1 80bd b69d 85bd 2004 64bd
000000e0: 12de e23d fab4 b4bd 38f9 2cbd b216 9fbd
000000f0: 90ab 30bd fccd e2bd 20e0 bbbb 48d4 f4bd
0.06323819 -0.11902538 0.00019280612 0.09456234 0.11734462 -0.053108543 0.064503044 -0.0837419
-0.011306226 -0.08492537 0.113604665 0.081411675 0.002386555 0.08167811 0.08813746 0.07876146
0.03128214 0.109986916 -0.058399543 0.10519874 -0.0894984 -0.03895943 -0.10408448 -0.066600576
0.02286379 -0.051203936 0.00731501 -0.0005094856 0.112998575 -0.11445959 -0.054279596 0.017044798
0.0362702 -0.0987733 0.0705363 -0.014237255 -0.027054831 -0.10811034 -0.09560341 0.09966612
-0.08761874 0.022732526 0.06117943 0.020463526 -0.019355118 -0.02016142 0.123092785 -0.12433794
0.10245609 0.08472656 -0.028030112 0.0623118 0.098682806 -0.06296 -0.065242216 -0.055667996
0.11077513 -0.08823581 -0.04222986 -0.07768001 -0.043132365 -0.11074445 -0.005733505 -0.11954552

rm.weight f4 [1, 64]
00000000: bad6 fdbd 206b 32bc b0d3 67bd 6040 9ebb
00000010: f4ee 403d 78a1 833d a8b2 583d 7637 e5bd
00000020: 3810 ab3d fe4b 8d3d 88f4 a73c 6ab9 84bd
00000030: 4810 7f3d 82e4 97bd a066 083c 40ff 61bc
00000040: a8ec 123d b878 f63c 8013 9abb f430 ef3d
00000050: a87e dfbd 0057 543d 2613 9f3d d861 8e3c
00000060: a075 8f3b c85a babc 6696 df3d 3abb ae3d
00000070: 8005 d7bb 0461 88bd 6056 86bb b06c c8bd
00000080: 2415 fabd 58bd 3cbd 5c2c 0c3d 5c76 9cbd
00000090: a4a7 a3bd 12d3 f2bd 6024 113d 30d2 33bd
000000a0: 68d0 dc3d 769c 903d eabc b53d d814 e9bc
000000b0: 3a8a ed3d 74ec 20bd 30ff 64bd 08ba ecbd
000000c0: b6fd a6bd 6058 b53c 6822 65bd 64e6 f2bd
000000d0: c882 5cbd c854 883c 1edd 933d 3476 213d
000000e0: 0097 a63c 982b 50bd e067 8f3b 2026 b23c
000000f0: 8021 b83d 90e4 bdbc c422 aebd 5098 7bbd
-0.123944715 -0.010889798 -0.056598365 -0.0048294514 0.047102883 0.06427282 0.052904755 -0.11192219
0.08352703 0.0689926 0.020502344 -0.064806774 0.062271386 -0.07416631 0.008325249 -0.0137937665
0.035870224 0.03008686 -0.0047020316 0.11679259 -0.1091283 0.051840782 0.07767324 0.01738064
0.0043780357 -0.022748366 0.10917358 0.085318044 -0.006561935 -0.06659129 -0.004099652 -0.097863555
-0.122110635 -0.04607901 0.034221992 -0.07639763 -0.07990959 -0.11856665 0.03543508 -0.043901622
0.10781938 0.070610926 0.08873923 -0.028452322 0.1159863 -0.039288 -0.05590743 -0.1155892
-0.0815386 0.022136867 -0.055941015 -0.1186035 -0.05383566 0.01664199 0.07219909 0.039419368
0.020335674 -0.050822824 0.0043763965 0.021746695 0.089907646 -0.023180276 -0.08502725 -0.061424553
