Models/model_gnn.pth (torch, 38424 bytes, 8 tensors)

conv1.bias f4 [64]
0.0 0.0 0.0 0.0 0.0 0.0 0.0 0.0
0.0 0.0 0.0 0.0 0.0 0.0 0.0 0.0
0.0 0.0 0.0 0.0 0.0 0.0 0.0 0.0
0.0 0.0 0.0 0.0 0.0 0.0 0.0 0.0
0.0 0.0 0.0 0.0 0.0 0.0 0.0 0.0
0.0 0.0 0.0 0.0 0.0 0.0 0.0 0.0
0.0 0.0 0.0 0.0 0.0 0.0 0.0 0.0
0.0 0.0 0.0 0.0 0.0 0.0 0.0 0.0
00000000: 0000 0000 0000 0000 0000 0000 0000 0000
00000010: 0000 0000 0000 0000 0000 0000 0000 0000
00000020: 0000 0000 0000 0000 0000 0000 0000 0000
00000030: 0000 0000 0000 0000 0000 0000 0000 0000
00000040: 0000 0000 0000 0000 0000 0000 0000 0000
00000050: 0000 0000 0000 0000 0000 0000 0000 0000
00000060: 0000 0000 0000 0000 0000 0000 0000 0000
00000070: 0000 0000 0000 0000 0000 0000 0000 0000
00000080: 0000 0000 0000 0000 0000 0000 0000 0000
00000090: 0000 0000 0000 0000 0000 0000 0000 0000
000000a0: 0000 0000 0000 0000 0000 0000 0000 0000
000000b0: 0000 0000 0000 0000 0000 0000 0000 0000
000000c0: 0000 0000 0000 0000 0000 0000 0000 0000
000000d0: 0000 0000 0000 0000 0000 0000 0000 0000
000000e0: 0000 0000 0000 0000 0000 0000 0000 0000
000000f0: 0000 0000 0000 0000 0000 0000 0000 0000

conv1.lin.weight f4 [64, 3]
0.27378038 -0.07254243 -0.27431184 0.003713063 -0.19510625 0.26340517 -0.043590248 0.20450567
-0.24335323 -0.012150967 0.27525306 0.06499847 0.043514404 -0.29546288 -0.17194499 0.15542145
-0.044971533 0.26228407 0.06295023 -0.090206556 -0.16313644 -0.13172708 0.24555844 0.23080337
-0.08738897 0.28115356 0.04464965 -0.045560434 0.14721511 0.056316417 0.22054093 0.032658644
-0.06806709 0.22042592 0.06875174 0.25596055 -0.053923387 -0.26435456 -0.23907293 -0.21048847
0.1835834 0.04600029 -0.027835771 -0.08682022 -0.29830807 -0.1110323 0.10743539 0.17757401
-0.10887964 -0.08573628 -0.056681607 -0.08334589 0.06235441 -0.29625797 -0.22322096 0.18614495
-0.13495804 0.25855488 0.20468475 -0.21849284 0.2702354 -0.26301003 -0.15240686 -0.08314651
-0.07765736 -0.1252869 -0.23400556 0.26544052 -0.090013415 -0.24638012 0.14682688 -0.25005582
-0.054262467 -0.16926782 -0.14616448 -0.19159317 0.29094228 -0.18196249 0.13814718 -0.25136644
-0.2872497 0.031920128 0.038755674 -0.09551812 -0.086246274 0.25848678 0.21052885 -0.006063497
0.17019568 -0.013484807 -0.09095324 0.13291623 0.072174914 -0.08631341 0.11985391 0.15846635
-0.11720125 0.05713313 0.09120674 0.05120366 0.25898403 -0.094362006 -0.13448551 0.16340527
0.2725568 -0.058064036 0.10701818 -0.10663751 -0.10080189 -0.11983343 0.21177262 -0.27237332
-0.17259686 0.14280795 0.26801413 0.17710462 0.18182571 -0.08511206 0.06329009 -0.012446309
-0.031548586 -0.2985372 -0.17050469 -0.1017866 -0.13654335 -0.112832926 -0.1281346 0.04338905
0.19851527 -0.28510815 -0.26878533 0.0061300285 -0.049704473 0.27930403 0.10099767 0.27491447
-0.031577125 0.14822645 -0.1455795 0.19810067 0.20184395 0.04363573 0.06375328 0.13229205
-0.06440229 0.23828465 0.16995978 0.06124064 -0.029822012 -0.12271569 0.17788273 0.009803244
0.18489155 -0.17888951 -0.22314715 0.2914499 -0.22161554 0.035311304 0.20168042 0.29476345
-0.22807968 -0.110050306 -0.16554105 -0.2810782 0.16387431 0.07080901 0.04347816 0.25446406
-0.07136912 -0.022460029 -0.06257248 -0.09673231 0.18785265 0.05319393 0.29478365 -0.07565674
-0.19941354 -0.22798629 -0.057295587 0.15886104 -0.07074708 -0.2606959 0.2646011 -0.037475664
-0.27673975 -0.26515073 0.26232633 -0.28824413 -0.11731797 -0.083222605 0.09392825 -0.29857412
00000000: f12c 8c3e 2091 94bd 9a72 8cbe dc56 733b
00000010: efc9 47be 0bdd 863e b08b 32bd ef69 513e
00000020: 9731 79be d914 47bc f8ed 8c3e eb1d 853d
00000030: 293c 323d e946 97be 5912 30be cd26 1f3e
00000040: 1234 38bd 194a 863e 0dec 803d 37be b8bd
00000050: 3d0d 27be 77e3 06be ac73 7b3e b857 6c3e
00000060: fdf8 b2bd 5cf3 8f3e 8de2 363d 949d 3abd
00000070: 8fbf 163e 0bac 663d 7bd5 613e 12c5 053d
00000080: c266 8bbd 55b7 613e b6cd 8c3d 430d 833e
00000090: c5de 5cbd 7b59 87be 89cf 74be 4a8a 57be
000000a0: 49fd 3b3e cd6a 3c3d d807 e4bc cdce b1bd
000000b0: d6bb 98be e764 e3bd 1607 dc3d f6d5 353e
000000c0: 4afc debd 8196 afbd f92a 68bd 40b1 aabd
000000d0: 5667 7f3d 20af 97be 0994 64be c89c 3e3e
000000e0: 7132 0abe 4e61 843e e198 513e 96bc 5fbe
000000f0: 4b5c 8a3e 40a9 86be 8b10 1cbe b848 aabd
00000100: d20a 9fbd 364b 00be 279f 6fbe d2e7 873e
00000110: f458 b8bd 124b 7cbe c959 163e 5107 80be
00000120: 5242 5ebd 8b54 2dbe 24ac 15be 0031 44be
00000130: 63f6 943e 6054 3abe 7476 0d3e 1ab3 80be
00000140: 6512 93be aebe 023d 45be 1e3d 019f c3bd
00000150: e3a1 b0bd 6158 843e e094 573e 4db0 c6bb
00000160: c747 2e3e 61ef 5cbc b145 babd 311b 083e
00000170: 71d0 933d 16c5 b0bd f775 f53d 0145 223e
00000180: 3507 f0bd 6e04 6a3d 99ca ba3d eeba 513d
00000190: 8e99 843e de40 c1bd 92b6 09be b653 273e
000001a0: 918c 8b3e 8ed4 6dbd 592c db3d c464 dabd
000001b0: 3971 cebd 3b6b f5bd ecda 583e 8474 8bbe
000001c0: 3bbd 30be 3f3c 123e 2639 893e ea5a 353e
000001d0: 8530 3a3e 3b4f aebd 3c9e 813d 9beb 4bbc
000001e0: 1739 01bd ded9 98be c898 2ebe 7e75 d0bd
000001f0: 05d2 0bbe f314 e7bd b735 03be b7b8 313d
00000200: 9647 4b3e b2f9 91be 3b9e 89be 68de c83b
00000210: eb96 4bbd f000 8f3e ded7 ce3d 97c1 8c3e
00000220: 0457 01bd adc8 173e cb12 15be e7da 4a3e
00000230: 2eb0 4e3e 61bb 323d 1491 823d 9177 073e
00000240: 59e5 83bd e400 743e f009 2e3e 77d7 7a3d
00000250: 4b4d f4bc 5d52 fbbd e426 363e c99d 203c
00000260: 3654 3d3e d02e 37be b080 64be ec38 953e
00000270: 2fef 62be 96a2 103d 5085 4e3e 3ceb 963e
00000280: b88d 69be 0e62 e1bd 9883 29be 7be9 8fbe
00000290: abce 273e 5004 913d 2816 323d 1d49 823e
000002a0: f929 92bd 18fe b7bc 0026 80bd 971b c6bd
000002b0: 725c 403e e1e1 593d e2ed 963e ecf1 9abd
000002c0: 1033 4cbe 3d75 69be c7ae 6abd 78ac 223e
000002d0: d8e3 90bd ef79 85be cc79 873e 1580 19bd
000002e0: d5b0 8dbe d6c1 87be a34f 863e bc94 93be
000002f0: 6744 f0bd 9d70 aabd 745d c03d b5de 98be

conv2.bias f4 [64]
0.0 0.0 0.0 0.0 0.0 0.0 0.0 0.0
0.0 0.0 0.0 0.0 0.0 0.0 0.0 0.0
0.0 0.0 0.0 0.0 0.0 0.0 0.0 0.0
0.0 0.0 0.0 0.0 0.0 0.0 0.0 0.0
0.0 0.0 0.0 0.0 0.0 0.0 0.0 0.0
0.0 0.0 0.0 0.0 0.0 0.0 0.0 0.0
0.0 0.0 0.0 0.0 0.0 0.0 0.0 0.0
0.0 0.0 0.0 0.0 0.0 0.0 0.0 0.0
00000000: 0000 0000 0000 0000 0000 0000 0000 0000
00000010: 0000 0000 0000 0000 0000 0000 0000 0000
00000020: 0000 0000 0000 0000 0000 0000 0000 0000
00000030: 0000 0000 0000 0000 0000 0000 0000 0000
00000040: 0000 0000 0000 0000 0000 0000 0000 0000
00000050: 0000 0000 0000 0000 0000 0000 0000 0000
00000060: 0000 0000 0000 0000 0000 0000 0000 0000
00000070: 0000 0000 0000 0000 0000 0000 0000 0000
00000080: 0000 0000 0000 0000 0000 0000 0000 0000
00000090: 0000 0000 0000 0000 0000 0000 0000 0000
000000a0: 0000 0000 0000 0000 0000 0000 0000 0000
000000b0: 0000 0000 0000 0000 0000 0000 0000 0000
000000c0: 0000 0000 0000 0000 0000 0000 0000 0000
000000d0: 0000 0000 0000 0000 0000 0000 0000 0000
000000e0: 0000 0000 0000 0000 0000 0000 0000 0000
000000f0: 0000 0000 0000 0000 0000 0000 0000 0000

conv2.lin.weight f4 [64, 64]
0.14354308 0.213843 0.08638697 0.17833999 -0.056360457 0.09573411 0.14741525 0.066035174
-0.08189342 0.13147472 -0.047360376 0.16471356 0.2084247 0.20967652 0.103415295 -0.09966292
-0.07304247 -0.084786214 0.14829339 0.13911262 -0.07833785 -0.03883235 0.055085257 -0.10934126
0.104705855 0.11520673 -0.13423944 0.04852204 -0.025141565 0.13429159 -0.032771442 0.20623545
0.14753768 0.082023196 0.010300521 -0.15354714 0.053295363 0.07354155 0.08116035 0.026884899
0.026187548 -0.067421995 0.017287403 0.12012294 0.062328145 -0.06774818 0.0056991912 -0.15343158
-0.09347916 0.044012774 0.10023621 0.12406176 -0.1306364 -0.12649561 -0.1258834 -0.053304292
0.09766201 -0.17505161 0.029868897 0.06252068 -0.19244966 -0.045651656 -0.087431975 0.202035
-0.0671783 0.18880871 0.16343956 -0.026966868 0.045770455 -0.16017836 0.13173547 -0.06019292
0.09479805 0.163026 -0.14274384 -0.1799924 0.021892475 -0.018609783 0.0021555377 0.16370776
-0.09979938 0.065269716 0.0045997812 0.04683105 0.17851286 -0.19652721 0.10496462 0.13163832
0.16957924 -0.17584175 0.16795623 0.13500197 -0.16458493 -0.15216547 -0.10357176 -0.001873181
-0.15938593 0.085958816 0.15954667 -0.069512755 -0.11919594 0.18885025 -0.16416433 0.12755527
-0.16230845 0.17645364 -0.18661915 0.08178598 0.05515564 0.020351645 0.007977428 -0.030762605
-0.09332286 0.08616036 0.12436622 0.20722657 -0.17892317 -0.20447429 -0.08363472 0.05845196
-0.1501419 -0.20423493 -0.057769064 0.21273199 0.079329446 0.20151927 -0.1993339 -0.051279508
-0.025477864 0.15360725 -0.016715541 -0.19617282 -0.024703085 0.14691831 0.054329786 0.17981632
0.069730975 -0.09935171 -0.11665729 0.005936949 0.1422486 -0.118267104 -0.007861723 -0.037473246
0.12711014 -0.13690776 0.19717656 0.17680395 -0.16358231 0.09059318 0.085792296 -0.08050232
-0.14038621 0.12701795 0.0176627 -0.20124352 -0.08095292 0.18588094 -0.04105799 -0.18290931
-0.1901123 -0.08055473 -0.13768059 0.19622178 0.17083667 0.03592204 0.14941603 -0.13990714
-0.14631169 -0.07546821 0.15308109 0.19857286 0.20536591 0.12905084 0.03372771 -0.12021392
0.15712072 0.13569683 0.0709497 0.008589037 0.21366517 0.032504648 -0.18049705 0.10159152
0.14624313 -0.11341932 -0.17179543 -0.063059926 -0.17613384 -0.18372998 0.107828066 -0.19346198
-0.0646405 -0.0059009707 -0.011226233 -0.110550016 0.13801563 0.13621359 -0.027341649 -0.05286486
-0.16772002 0.13378751 0.07409127 0.06405155 0.13434492 0.19185537 0.06110312 0.07691742
0.16676421 0.043120537 0.06676574 0.14522688 -0.13799447 -0.04211058 0.101310916 0.17889076
0.07613549 -0.09974304 -0.083856344 0.14194383 0.20388493 0.0029395807 0.20599894 -0.009279985
0.065006375 0.06257625 -0.13255985 -0.15970092 -0.20523614 -0.052385963 -0.1745918 0.04961683
-0.027151924 0.14966755 -0.0076229847 0.10339599 -0.016685963 0.02821724 0.16132706 0.14010923
0.14292632 0.019283077 0.13746503 0.037145644 -0.19395112 -0.020263247 0.09000011 -0.13060191
-0.05650801 0.012423177 -0.019706998 0.003267672 0.096298054 -0.10571901 -0.10309294 0.2018087
00000000: f5fc 123e a9f9 5a3e a7eb b03d c29e 363e
00000010: 39da 66bd 3f10 c43d 06f4 163e 733d 873d
00000020: bdb7 a7bd 4fa1 063e f4fc 41bd acaa 283e
00000030: 496d 553e 71b5 563e 66cb d33d 131c ccbd
00000040: 4a97 95bd 65a4 adbd 39da 173e 8a73 0e3e
00000050: 986f a0bd ac0e 1fbd 14a1 613d 4fee dfbd
00000060: 0670 d63d 82f1 eb3d 1076 09be 0cbf 463d
00000070: aff5 cdbc bc83 093e 593b 06bd 632f 533e
00000080: 1e14 173e c7fb a73d 84c3 283c 763b 1dbe
00000090: 3d4c 5a3d f49c 963d 6637 a63d b83d dc3c
000000a0: 4587 d63c 8b14 8abd 509e 8d3c 0403 f63d
000000b0: cc4b 7f3d 8fbf 8abd 48c0 ba3b 2b1d 1dbe
000000c0: 0072 bfbd bd46 343d a448 cd3d 1814 fe3d
000000d0: 8cc5 05be 1188 01be 94e7 00be 9a55 5abd
000000e0: 0503 c83d bb40 33be 9eaf f43c d80a 803d
000000f0: 8611 45be 3bfd 3abd 890f b3bd 43e2 4e3e
00000100: c794 89bd 1257 413e b35c 273e 9fe9 dcbc
00000110: cd79 3b3d cc05 24be aae5 063e da8c 76bd
00000120: 7b25 c23d 4af0 263e 712b 12be ed4f 38be
00000130: d957 b33c 8b73 98bc ec43 0d3b 02a3 273e
00000140: 9e63 ccbd 21ac 853d c3b9 963b ead1 3f3d
00000150: 13cc 363e 6e3e 49be b1f7 d63d 32cc 063e
00000160: 2ea6 2d3e dc0f 34be b8fc 2b3e f53d 0a3e
00000170: f488 28be 44d1 1bbe 6e1d d4bd 8685 f5ba
00000180: 1136 23be 2d0b b03d 3460 233e b45c 8ebd
00000190: 001d f4bd f661 413e b21a 28be d99d 023e
000001a0: 3034 26be 43b0 343e 1719 3fbe 687f a73d
000001b0: e1ea 613d 7eb8 a63c c2b3 023c dc01 fcbc
000001c0: 0e20 bfbd d874 b03d b7b3 fe3d 3433 543e
000001d0: a337 37be b561 51be ae48 abbd 536b 6f3d
000001e0: ccbe 19be f622 51be 419f 6cbd 6ad6 593e
000001f0: 7a77 a23d 115b 4e3e 301e 4cbe 760a 52bd
00000200: f4b6 d0bc 384b 1d3e 08ef 88bc 87e1 48be
00000210: 205e cabc c171 163e e988 5e3d c521 383e
00000220: 1dcf 8e3d e978 cbbd 04ea eebd bd8a c23b
00000230: 9ea9 113e 0636 f2bd 75ce 00bc 8c7d 19bd
00000240: 2929 023e 8c31 0cbe a7e8 493e 180c 353e
00000250: 1f82 27be eb88 b93d dfb3 af3d 66de a4bd
00000260: 67c1 0fbe fe10 023e 5eb1 903c c812 4ebe
00000270: a5ca a5bd 9357 3e3e 6c2c 28bd 944c 3bbe
00000280: ccac 42be e1f9 a4bd 24fc 0cbe 5dee 483e
00000290: cfef 2e3e fd22 133d 8400 193e d143 0fbe
000002a0: bbd2 15be 148f 9abd 4ac1 1c3e af56 4b3e
000002b0: 714b 523e e725 043e 1126 0a3d b732 f6bd
000002c0: 41e4 203e 1cf4 0a3e 144e 913d 08b9 0c3c
000002d0: 0bcb 5a3e 9823 053d 38d4 38be 370f d03d
000002e0: c2c0 153e 6348 e8bd 24eb 2fbe 9025 81bd
000002f0: 6e5c 34be b623 3cbe f6d4 dc3d e61a 46be
00000300: 3d62 84bd ee5c c1bb 3cee 37bc 0c68 e2bd
00000310: f853 0d3e 937b 0b3e 98fb dfbc d388 58bd
00000320: ccbe 2bbe 98ff 083e 2abd 973d 762d 833d
00000330: b791 093e bc75 443e 4447 7a3d e186 9d3d
00000340: 3dc4 2a3e 299f 303d 7abc 883d 5bb6 143e
00000350: 6c4e 0dbe 257c 2cbd 197c cf3d 242f 373e
00000360: ecec 9b3d 1446 ccbd e0bc abbd b959 113e
00000370: 36c7 503e fba5 403b 63f1 523e 140b 18bc
00000380: 1022 853d fa27 803d c5bd 07be a388 23be
00000390: 6c29 52be aa92 56bd 31c8 32be 043b 4b3d
000003a0: b66d debc 7342 193e 3bca f9bb 47c1 d33d
000003b0: 00b1 88bc d727 e73c ec32 253e cb78 0f3e
000003c0: 475b 123e 8bf7 9d3c a2c3 0c3e 0826 183d
000003d0: 1f9b 46be 1cff a5bc fa51 b83d 82bc 05be
000003e0: f174 67bd 958a 4b3c 9270 a1bc 7026 563b
000003f0: ea37 c53d 3583 d8bd 6422 d3bd f1a6 4e3e

conv3.bias f4 [64]
0.0 0.0 0.0 0.0 0.0 0.0 0.0 0.0
0.0 0.0 0.0 0.0 0.0 0.0 0.0 0.0
0.0 0.0 0.0 0.0 0.0 0.0 0.0 0.0
0.0 0.0 0.0 0.0 0.0 0.0 0.0 0.0
0.0 0.0 0.0 0.0 0.0 0.0 0.0 0.0
0.0 0.0 0.0 0.0 0.0 0.0 0.0 0.0
0.0 0.0 0.0 0.0 0.0 0.0 0.0 0.0
0.0 0.0 0.0 0.0 0.0 0.0 0.0 0.0
00000000: 0000 0000 0000 0000 0000 0000 0000 0000
00000010: 0000 0000 0000 0000 0000 0000 0000 0000
00000020: 0000 0000 0000 0000 0000 0000 0000 0000
00000030: 0000 0000 0000 0000 0000 0000 0000 0000
00000040: 0000 0000 0000 0000 0000 0000 0000 0000
00000050: 0000 0000 0000 0000 0000 0000 0000 0000
00000060: 0000 0000 0000 0000 0000 0000 0000 0000
00000070: 0000 0000 0000 0000 0000 0000 0000 0000
00000080: 0000 0000 0000 0000 0000 0000 0000 0000
00000090: 0000 0000 0000 0000 0000 0000 0000 0000
000000a0: 0000 0000 0000 0000 0000 0000 0000 0000
000000b0: 0000 0000 0000 0000 0000 0000 0000 0000
000000c0: 0000 0000 0000 0000 0000 0000 0000 0000
000000d0: 0000 0000 0000 0000 0000 0000 0000 0000
000000e0: 0000 0000 0000 0000 0000 0000 0000 0000
000000f0: 0000 0000 0000 0000 0000 0000 0000 0000

conv3.lin.weight f4 [64, 64]
0.026809508 -0.052169472 0.12607104 -0.07017591 0.10284091 -0.11147413 0.16215771 0.08548248
-0.021712093 0.13161421 -0.09410734 0.008067632 -0.055533312 0.1493855 0.18516774 0.18830648
-0.20590076 -0.056611273 -0.1734227 -0.12896545 -0.09984284 -0.033019807 -0.13161103 0.118810914
-0.19056308 0.19368297 0.0034420413 0.16938812 -0.045747846 -0.21122935 0.201377 0.08388037
-0.10033036 0.09217177 0.09271238 -0.013149433 -0.07010676 -0.049413707 0.146445 0.10088625
-0.17674865 0.019241678 0.15461926 -0.0138170235 0.037594628 -0.11987156 0.018272245 -0.146596
-0.16833003 0.015662149 0.06113236 -0.12953115 0.021178711 0.0011595723 -0.19131948 0.1743254
-0.12958924 0.09001587 0.17094293 -0.18382666 0.12552427 0.13846418 -0.12480026 -0.11514681
-0.06838294 -0.061636474 0.03963294 -0.057112444 -0.14155373 0.054199576 -0.08888015 0.14744093
-0.039362818 -0.14394175 -0.15218447 -0.18381219 -0.02910132 0.092313446 -0.05312595 -0.16634297
-0.056123782 -0.1800986 0.017627263 0.033425998 0.012780201 0.056700315 0.16999981 -0.10262256
-0.004943616 -0.049846817 -0.055785522 0.031554624 0.17122695 0.15862112 0.0988238 -0.17354162
-0.03540701 -0.18390548 -0.08434352 -0.04097527 0.18983996 0.20563853 -0.0026942866 0.002551663
0.11263631 0.010114176 -0.18671782 -0.14043358 -0.080301724 0.046052914 -0.14209677 -0.09215781
-0.122906946 -0.14751582 -0.16679771 0.05490609 -0.09276872 -0.106240205 -0.1705543 0.02116764
-0.0253507 -0.026153376 -0.13191374 0.123014905 0.15168123 -0.06792498 0.12209371 -0.16532229
-0.014042212 -0.0760618 -0.21383922 -0.027152311 0.10257546 -0.046258926 0.12477442 0.10098633
-0.07231417 0.058560774 -0.061530784 -0.14878465 -0.100794055 0.06398063 -0.08654717 0.008433715
0.15663649 -0.039239343 -0.04248358 -0.060964987 -0.1628935 -0.13989052 0.2060811 -0.15081389
0.11108425 0.019284418 0.022135964 0.042125523 -0.057263922 -0.066659585 -0.00493768 -0.20883311
0.20677537 -0.09447651 0.15315157 0.08962496 -0.1448593 -0.1633869 0.012675233 -0.106198885
0.08072944 -0.028011821 0.022092318 0.050151397 -0.17258556 -0.07019779 0.1245388 -0.14752026
-0.21030423 -0.10140029 0.1696648 0.09577543 0.045601066 0.029562563 -0.06496565 0.15175834
-0.11786564 0.06685976 0.033879396 -0.11887575 -0.19257241 -0.020011164 0.1925609 -0.20119753
-0.04883529 -0.12596442 -0.029329348 0.0810278 0.037405238 0.06900779 0.052229505 0.15830192
-0.13455702 0.08238272 0.17288356 0.08154995 0.10324495 -0.049609628 0.08655788 -0.17102592
-0.0065790396 -0.11777494 -0.07321175 0.058543302 0.048198543 0.19737153 0.14873582 -0.18416244
0.1817246 0.19494472 0.1727279 -0.010790542 -0.20492892 0.048543926 -0.023896588 0.12782775
-0.19467959 -0.00048111615 0.13930985 0.18738157 -0.106997564 0.09648796 0.19611828 0.055476323
-0.1498756 -0.15636496 -0.032509603 0.04117612 -0.019799551 -0.04965157 0.093319006 -0.161631
0.15070486 -0.026483895 0.13749693 0.10328935 -0.1744261 -0.07192964 0.052373137 -0.20275158
0.12150626 0.14072633 -0.19188422 0.021824133 -0.085477084 -0.13557278 -0.06733087 0.12570792
00000000: 9d9f db3c a8af 55bd c418 013e 63b8 8fbd
00000010: 419e d23d 8c4c e4bd ac0c 263e 7011 af3d
00000020: 8fdd b1bc e0c5 063e 59bb c0bd 1a2e 043c
00000030: e676 63bd 83f8 183e 9d9c 3d3e 6ad3 403e
00000040: a6d7 52be 39e1 67bd b895 31be 850f 04be
00000050: 677a ccbd c73f 07bd 0bc5 06be 2353 f33d
00000060: f822 43be d454 463e df93 613b 1474 2d3e
00000070: 1862 3bbd 824c 58be c635 4e3e 79c9 ab3d
00000080: 017a cdbd 8ec4 bc3d fddf bd3d b870 57bc
00000090: 2294 8fbd 0766 4abd aef5 153e 739d ce3d
000000a0: 99fd 34be b9a0 9d3c 8354 1e3e cc60 62bc
000000b0: d3fc 193d 387f f5bd adaf 953c 431d 16be
000000c0: b55e 2cbe e84d 803c ed65 7a3d d0a3 04be
000000d0: fa7e ad3c cafc 973a 41e9 43be 5c82 323e
000000e0: 0bb3 04be 3e5a b83d aa0b 2f3e 0e3d 3cbe
000000f0: 6f89 003e 8ec9 0d3e 4797 ffbd 17d2 ebbd
00000100: 5b0c 8cbd 8776 7cbd 2656 223d bdee 69bd
00000110: 76f3 10be 6000 5e3d cc06 b6bd c1fa 163e
00000120: e83a 21bd 7765 13be 3fd6 1bbe 4339 3cbe
00000130: e465 eebc d50e bd3d 999a 59bd d055 2abe
00000140: 0de2 65bd c46b 38be 0d67 903c b3e9 083d
00000150: 0c64 513c 973e 683d 6e14 2e3e c72b d2bd
00000160: 0ffe a1bb 2d2c 4cbd 5c7f 64bd 6c3f 013d
00000170: 1e56 2f3e 936d 223e 2264 ca3d e5b4 31be
00000180: f106 11bd b851 3cbe 4cbc acbd afd5 27bd
00000190: 6865 423e e892 523e a192 30bb cd39 273b
000001a0: dead e63d eeb5 253c f532 3fbe d2cd 0fbe
000001b0: 3b75 a4bd fba1 3c3d d181 11be 3cbd bcbd
000001c0: a3b6 fbbd 630e 17be 05cd 2abe 35e5 603d
000001d0: 87fd bdbd 7794 d9bd c9a5 2ebe c267 ad3c
000001e0: 45ac cfbc 9b3f d6bc 6514 07be 3def fb3d
000001f0: 5352 1b3e 401c 8bbd 440c fa3d 3f4a 29be
00000200: 4e11 66bc 4ac6 9bbd abf8 5abe 866e debc
00000210: 1513 d23d 007a 3dbd bb89 ff3d ecd1 ce3d
00000220: 7419 94bd 6cdd 6f3d b407 7cbd 015b 18be
00000230: 1d6d cebd 4708 833d a53f b1bd 912d 0a3c
00000240: 5165 203e 6fb9 20bd 4303 2ebd 6cb6 79bd
00000250: 8ecd 26be 763f 0fbe ed06 533e f56e 1abe
00000260: 2480 e33d 5bfa 9d3c 7b56 b53c d08b 2c3d
00000270: 938d 6abd d284 88bd 43cc a1bb 59d8 55be
00000280: ecbc 533e e77c c1bd c4d3 1c3e 4b8d b73d
00000290: ff55 14be e54e 27be c8ab 4f3c cd7e d9bd
000002a0: 7a55 a53d 0c79 e5bc f3fa b43c 8d6b 4d3d
000002b0: 45ba 30be dcc3 8fbd 330e ff3d 8d0f 17be
000002c0: fe59 57be f5aa cfbd 9cbc 2d3e e925 c43d
000002d0: 2fc8 3a3d 302d f23c b60c 85bd 8a66 1b3e
000002e0: 8a63 f1bd c5ed 883d 1fc5 0a3d 2175 f3bd
000002f0: b431 45be 74ee a3bc af2e 453e ba06 4ebe
00000300: 8307 48bd d1fc 00be 1a44 f0bc e7f1 a53d
00000310: 3c36 193d f553 8d3d 9bee 553d e619 223e
00000320: 51c9 09be 46b8 a83d 6308 313e a903 a73d
00000330: 1772 d33d 7733 4bbd 4245 b13d 6b21 2fbe
00000340: fc94 d7bb fd33 f1bd 0bf0 95bd 1acb 6f3d
00000350: d66b 453d c31b 4a3e 344e 183e 1495 3cbe
00000360: 0316 3a3e 979f 473e 95df 303e d0ca 30bc
00000370: e3d8 51be ffd5 463d c7c2 c3bc 47e5 023e
00000380: 165a 47be 513e fcb9 3ea7 0e3e f4e0 3f3e
00000390: 8a21 dbbd 7b9b c53d 3bd3 483e 243b 633d
000003a0: fd78 19be 231e 20be ca28 05bd 4ba8 283d
000003b0: ab32 a2bc 725f 4bbd 091e bf3d 9982 25be
000003c0: 6052 1a3e c1f4 d8bc ffcb 0c3e 5e89 d33d
000003d0: c19c 32be d94f 93bd 3785 563d 1c9e 4fbe
000003e0: 46d8 f83d 901a 103e 4c7d 44be 86c8 b23c
000003f0: 9c0e afbd 97d3 0abe c4e4 89bd 94b9 003e

classifier.weight f4 [3, 64]
0.092965454 0.041661993 0.11999753 -0.016809389 -0.114705145 0.054593697 0.10454525 0.118781686
-0.09834848 -0.06066379 0.09850505 -0.02813521 -0.022352636 -0.03599438 0.10577455 0.037616298
0.010639191 0.014727116 0.108462185 -0.07606177 -0.034582004 0.027178496 0.07202585 -0.079472855
0.03301868 0.060648605 0.06240797 -0.008440644 0.12499094 0.043173805 -0.005511299 0.039096832
0.022200495 0.085226476 0.018290833 -0.008759335 -0.11465283 0.09472394 -0.09354703 -0.06357472
-0.09794739 -0.10003814 0.01681444 -0.010711417 -0.028714702 0.103404075 0.05260107 -0.0047421604
-0.042062 -0.11995253 -0.109858856 0.10472965 0.055174306 -0.10922332 0.11855388 -0.103033364
-0.07459423 -0.12183951 0.055289924 0.057601392 -0.102380395 0.10685176 0.039322183 0.0832663
-0.077507704 0.024899676 -0.0083716065 0.09449035 0.020840153 -0.11034876 0.037178993 -0.0037235767
0.060424 0.018722802 -0.10678345 -0.017806768 0.11346471 -0.04284112 0.043861598 0.10591304
0.07453576 -0.09487252 0.010512099 0.12074047 -0.10153632 -0.086765036 0.08767465 -0.11908166
0.035530165 -0.083706364 -0.0051532984 -0.0713969 -0.029645294 0.05717863 0.09736809 -0.07058947
0.108826 -0.06182602 -0.11089289 0.037 -0.032375053 0.0355473 -0.10759421 0.062301904
-0.05633837 -0.08099495 0.059932813 -0.06302561 -0.10343093 -0.039446488 -0.021444395 -0.010396063
-0.049453184 0.11517313 0.07694577 0.047350004 0.009578839 0.04495524 0.06942779 -0.12406106
-0.012625679 0.08697553 0.037249833 -0.04210125 0.032149374 0.07167138 0.11076021 0.0006735623
-0.0657507 0.11064717 0.052155644 -0.06797765 0.0088146925 -0.02046509 0.045269847 0.07541974
-0.113082334 -0.040658593 0.008816704 0.080595315 0.032947525 -0.028791934 -0.105813324 0.119652614
-0.01580207 0.09208915 0.06789687 -0.00955151 0.03173855 0.052804172 0.060396984 -0.08565678
0.057625815 -0.11150135 0.02895005 -0.041090652 -0.12164341 -0.09383458 -0.09064184 -0.11816777
0.069186226 0.050596774 -0.060146764 0.0063566267 -0.039003864 0.0772983 0.032510415 0.04767923
-0.01322557 -0.10793804 0.02330482 -0.038638547 -0.020732358 -0.088419184 0.00564833 -0.028699756
-0.07584761 -0.01677841 -0.121261925 -0.106904015 0.003383413 0.047201276 0.02985461 -0.05009377
0.11308552 -0.02926533 -0.09922284 0.06124878 -0.06891829 0.02599056 0.03415568 0.041237026
00000000: ac64 be3d c4a5 2a3d 44c1 f53d d8b3 89bc
00000010: 88ea eabd a49d 5f3d d21b d63d d043 f33d
00000020: ee6a c9bd 987a 78bd 04bd c93d d07b e6bc
00000030: e01c b7bc d86e 13bd 54a0 d83d 8c13 1a3d
00000040: 0050 2e3c 004a 713c 6c21 de3d 46c6 9bbd
00000050: dca5 0dbd 70a5 de3c 4a82 933d aac2 a2bd
00000060: 983e 073d ac6a 783d 809f 7f3d a04a 0abc
00000070: 40fb ff3d 04d7 303d 2098 b4bb 0024 203d
00000080: d0dd b53c 388b ae3d a8d6 953c 5083 0fbc
00000090: 1acf eabd a0fe c13d 9695 bfbd 7633 82bd
000000a0: a498 c8bd cce0 ccbd 70be 893c f07e 2fbc
000000b0: 183b ebbc 84c5 d33d 3874 573d 2064 9bbb
000000c0: 3449 2cbd aca9 f5bd aefd e0bd 807c d63d
000000d0: 74fe 613d 7ab0 dfbd 60cc f23d 2803 d3bd
000000e0: dcc4 98bd fe86 f9bd b077 623d 70ef 6b3d
000000f0: d0ac d1bd 18d5 da3d 4c10 213d 8687 aa3d
00000100: 5cbc 9ebd 68fa cb3c 1029 09bc 2884 c13d
00000110: f8b8 aa3c 88fe e1bd 0049 183d 4007 74bb
00000120: 287f 773d 9060 993c 48b1 dabd 80df 91bc
00000130: 3060 e83d 2c7a 2fbd 38a8 333d f0e8 d83d
00000140: 34a6 983d 864c c2bd f03a 2c3c c846 f73d
00000150: 46f2 cfbd deb1 b1bd c48e b33d 16e1 f3bd
00000160: 1488 113d 3e6e abbd 00dd a8bb 8a38 92bd
00000170: b0da f2bc 2434 6a3d ec68 c73d 3691 90bd
00000180: 2ae0 de3d 483d 7dbd d01b e3bd 508d 173d
00000190: b49b 04bd 0c9a 113d 5a5a dcbd 4830 7f3d
000001a0: 10c3 66bd aee0 a5bd 1c7c 753d 9213 81bd
000001b0: 98d3 d3bd a492 21bd 28ac afbc 4054 2abc
000001c0: 6c8f 4abd e4df eb3d be95 9d3d 14f2 413d
000001d0: 90f0 1c3c fc22 383d 2830 8e3d ba13 febd
000001e0: f0db 4ebc 3a20 b23d 4893 183d 5c72 2cbd
000001f0: 10af 033d 72c8 923d 40d6 e23d 0092 303a
00000200: 4ea8 86bd fc9a e23d 28a1 553d de37 8bbd
00000210: 806b 103c 68a6 a7bc e06c 393d aa75 9a3d
00000220: b697 e7bd a089 26bd f073 103c 280f a53d
00000230: fcf3 063d 10dd ebbc a8b4 d8bd 6e0c f53d
00000240: 5873 81bc 3c99 bc3d 840d 8b3d f07d 1cbc
00000250: 4800 023d 3049 583d d462 773d d26c afbd
00000260: 0c09 6c3d d25a e4bd a828 ed3c ac4e 28bd
00000270: 2e20 f9bd 582c c0bd 6ea2 b9bd f201 f2bd
00000280: 82b1 8d3d 903e 4f3d 745c 76bd 404b d03b
00000290: 84c2 1fbd 924e 9e3d a429 053d 4c4b 433d
000002a0: 10b0 58bc 9e0e ddbd c0e9 be3c 7443 1ebd
000002b0: e8d6 a9bc 1e15 b5bd a015 b93b c01b ebbc
000002c0: fe55 9bbd e072 89bc 2c58 f8bd 7ef0 dabd
000002d0: 40bc 5d3b 2056 413d a891 f43c 202f 4dbd
000002e0: 6299 e73d d8bd efbc 5835 cbbd 00e0 7a3d
000002f0: 0825 8dbd 28ea d43c d4e6 0b3d 28e8 283d

classifier.bias f4 [3]
-0.09709217 0.0116811395 -0.12103219
00000000: 42d8 c6bd 4062 3f3c badf f7bd
